dqn_normal.pth (torch, 7526 bytes, 6 tensors)

fc1.weight f4 [16, 40]
0	0x3ee888ce	0.45416874
1	0x3f2729d9	0.6529823
2	0x3f21ed47	0.6325268
3	0x3ea4d468	0.32193303
4	0x3f2004b3	0.6250717
5	0x3ec15daa	0.37766773
6	0x3f2ad1f9	0.6672664
7	0x3eeb8d5d	0.4600629
8	0x3ea27282	0.31727988
9	0x3ee40b4a	0.44539863
10	0x3f2bc4a2	0.6709691
11	0x3efcc1c4	0.4936658
12	0x3f1a1667	0.60190433
13	0x3eec98ec	0.4621042
14	0x3ed3a194	0.41334212
15	0x3f070fc1	0.52758414
16	0x3effd5e5	0.49967876
17	0x3f2350a9	0.6379495
18	0x3f0ce319	0.55034024
19	0x3e80d417	0.25161812
20	0x3f1dc7a4	0.6163275
21	0x3f144a34	0.57925725
22	0x3f34ae66	0.7057861
23	0x3f13f7cb	0.5779998
24	0x3ee49e9b	0.44652256
25	0x3f165521	0.58723646
26	0x3f100e12	0.5627147
27	0x3e6ef09f	0.23333977
28	0x3d890228	0.066898644
29	0xbd66311d	-0.05619918
30	0x3e945c5a	0.2897671
31	0x3e7cc58c	0.24684733
32	0x3e6d1582	0.23152736
33	0x3e7b9148	0.24567139
34	0x3dd3c05b	0.10339423
35	0x3ea41af8	0.32051826
36	0x3e8be901	0.27326205
37	0x3bb89069	0.0056324494
38	0xbee77a2c	-0.45210397
39	0x3ecaff77	0.3964803
40	0x3e55be4f	0.20873378
41	0x3e8d04eb	0.27542815
42	0x3eb3c1c2	0.35108763
43	0x3ee789ad	0.45222226
44	0x3f0f9d60	0.5609951
45	0x3ec90911	0.3926473
46	0x3e8c1f9a	0.2736786
47	0x3e61d112	0.2205241
48	0x3ebfa1d3	0.3742815
49	0x3ec925d7	0.39286682
50	0x3eb44650	0.35209894
51	0x3e6e7dab	0.23290126
52	0x3efd5559	0.49479178
53	0x3ef0358a	0.46915847
54	0x3f063637	0.52426475
55	0x3eb3eb7f	0.35140607
56	0x3ed3daa4	0.41377747
57	0x3e9f8665	0.31157222
58	0x3e4ec321	0.20191623
59	0x3e1a4a84	0.15067488
60	0x3eb2dfd6	0.34936398
61	0x3eae0a59	0.3399227
62	0x3e9f453e	0.31107515
63	0x3ee323ea	0.44363338
64	0x3ef8fdac	0.48631036
65	0x3ed4fd2a	0.415994
66	0x3f065069	0.52466446
67	0x3d02b563	0.031911265
68	0xbddcfa60	-0.10789943
69	0x3da9c8d4	0.08290258
70	0x3d96526f	0.07339942
71	0xbcff2641	-0.03114617
72	0x3e6baa62	0.23014215
73	0x3b8e2ea4	0.004339056
74	0xbd876b13	-0.0661222
75	0x3c985645	0.018595824
76	0x3e102dc4	0.14079958
77	0xbdd019fe	-0.101612076
78	0xbefa484e	-0.4888329
79	0x3ef599c8	0.47968888
80	0x3ef13903	0.4711381
81	0x3f0bd028	0.54614496
82	0x3ec89949	0.39179447
83	0x3eefaa0b	0.4680942
84	0x3f0f9607	0.560883
85	0x3f0444fc	0.5166776
86	0x3e34667c	0.1761722
87	0x3f062ae4	0.52409196
88	0x3eeb31cc	0.4593643
89	0x3f40177e	0.75035846
90	0x3f428378	0.75981855
91	0x3f0c77ff	0.548706
92	0x3f1f1b4b	0.6215102
93	0x3ef84cb3	0.48496017
94	0x3f1c1bd0	0.6097994
95	0x3ef159c1	0.4713879
96	0x3f1d82f3	0.6152794
97	0x3f26f912	0.652238
98	0x3ee13b79	0.43990687
99	0x3e9a2fad	0.301145
100	0x3f1104d1	0.56647974
101	0x3efdcada	0.49568826
102	0x3f06b800	0.5262451
103	0x3f1f61ba	0.62258494
104	0x3f031c02	0.5121461
105	0x3ed87dfd	0.4228362
106	0x3f15c42b	0.58502454
107	0xbd016b00	-0.031596184
108	0xbe4c76d5	-0.19967206
109	0xbe1115e6	-0.1416851
110	0x3e50a249	0.20374407
111	0xbdb7fc6e	-0.08983694
112	0x3e45e34f	0.19324993
113	0x3d0ea046	0.034820817
114	0xbc34e327	-0.011040485
115	0xbdeebc8f	-0.116570584
116	0x3e07d94f	0.1326649
117	0xbd9df4d1	-0.07712711
118	0xbf1d8cf8	-0.61543226
119	0x3f12b13e	0.573017
120	0x3e79ff2e	0.2441375
121	0x3eceb20c	0.40370214
122	0x3ec093f1	0.3761287
123	0x3ec574dd	0.38565722
124	0x3eb7c606	0.35893267
125	0x3ebdcbbf	0.37069508
126	0x3ed993bf	0.42495534
127	0x3ebe7a68	0.37202764
128	0x3eb46453	0.3523279
129	0x3f08ad91	0.5338984
130	0x3ef98e43	0.4874135
131	0x3eb11cd6	0.34592313
132	0x3ebfeb75	0.37484327
133	0x3e780d35	0.24223788
134	0x3ec4d4d5	0.38443628
135	0x3e8ce081	0.27515033
136	0x3efd670d	0.49492684
137	0x3ea93d4a	0.33054572
138	0x3ec81e84	0.39085782
139	0x3ec1fc92	0.37888008
140	0x3f0729cd	0.5279816
141	0x3eb48fc3	0.3526593
142	0x3ecc1386	0.39858645
143	0x3ef590e4	0.47962105
144	0x3e6d26d4	0.23159343
145	0x3ea87d4f	0.32908103
146	0x3ecd7045	0.40124717
147	0x3e00d6f8	0.12582004
148	0x3be16e9e	0.0068796417
149	0x3e099e07	0.13439189
150	0x3dd5f789	0.10447604
151	0x3ce83aa4	0.028348275
152	0x3e7a08eb	0.24417464
153	0x3e854647	0.2603018
154	0x3d04ab38	0.03238985
155	0x3e166398	0.1468643
156	0x3e7be5ab	0.2459933
157	0xbcadfe3c	-0.021239392
158	0xbeff7a02	-0.49897772
159	0x3ec016e2	0.37517458
160	0x3ed942c8	0.42433763
161	0x3eeffb54	0.46871436
162	0x3ebb4885	0.36578766
163	0x3eee03ac	0.46487176
164	0x3ee2b2dc	0.44277084
165	0x3ed7d06c	0.421512
166	0x3e1e2aff	0.15446089
167	0x3e7433dd	0.2384791
168	0x3e7375b7	0.23775373
169	0x3ecc8ebd	0.3995265
170	0x3ed29254	0.41127264
171	0x3e92576e	0.2858233
172	0x3f19d3e9	0.60088974
173	0x3f1f70bd	0.622814
174	0x3ed226fd	0.4104537
175	0x3ea860df	0.32886407
176	0x3f30e1f8	0.690948
177	0x3f0cb5d3	0.5496494
178	0x3ebc828c	0.3681835
179	0x3e6dd258	0.23224771
180	0x3f04ee0e	0.5192574
181	0x3ed77a5a	0.42085534
182	0x3f310698	0.69150686
183	0x3e9a5250	0.30140924
184	0x3ec3c14b	0.38233408
185	0x3ea5cc20	0.32382298
186	0x3f1a27ee	0.6021718
187	0xbbed47fd	-0.0072412477
188	0xbe4731e0	-0.1945262
189	0x3d053154	0.032517746
190	0x3e6008d0	0.21878362
191	0xbe15bd47	-0.14622985
192	0xbd0fb562	-0.03508509
193	0x3e568c07	0.20951854
194	0xbd905064	-0.07046583
195	0x3ddc84cc	0.107675165
196	0x3ef0f657	0.47062942
197	0xbe5f2a8b	-0.21793573
198	0xbf1cbd2a	-0.6122614
199	0x3f0c74d2	0.54865754
200	0x3e89538d	0.26821557
201	0x3f05b456	0.52228296
202	0x3f13e5ea	0.57772696
203	0x3ea5fb3e	0.32418245
204	0x3eec564e	0.46159595
205	0x3eef859b	0.4678162
206	0x3e7b54da	0.24544087
207	0x3f07828e	0.52933586
208	0x3ede36f7	0.4340131
209	0x3f0ab69f	0.5418491
210	0x3eb55897	0.3541915
211	0x3ece5eec	0.40306795
212	0x3f2e953c	0.68196464
213	0x3f0fed51	0.5622149
214	0x3ec99697	0.39372703
215	0x3f03d4aa	0.51496375
216	0x3f2ede40	0.68307877
217	0x3f019971	0.5062476
218	0x3ecf02da	0.40431863
219	0x3eb8d685	0.36101165
220	0x3edd5788	0.43230844
221	0x3ef9686e	0.48712486
222	0x3f086561	0.5327969
223	0x3ebe46bb	0.37163338
224	0x3f0cd9c9	0.55019814
225	0x3f01207a	0.5044018
226	0x3f05c221	0.5224934
227	0xbe056118	-0.1302532
228	0xbd50bc69	-0.050960932
229	0x3dc90c57	0.09816807
230	0xbd21f31a	-0.03953848
231	0xbda6c62b	-0.08143266
232	0xbb4fb561	-0.0031693804
233	0xbd3ca7c1	-0.04605842
234	0x3d9747c0	0.07386732
235	0x3cab9241	0.020943763
236	0x3eb5ba9b	0.3549393
237	0xbe7b9609	-0.24568953
238	0xbf11963d	-0.5686987
239	0x3e9dfa20	0.30854893
240	0x3e0638fc	0.13107675
241	0xbe1d5adb	-0.1536669
242	0xbdc09975	-0.094042696
243	0x3de7148e	0.11283217
244	0x3cdaf97e	0.026730295
245	0x3c80d7e3	0.015727943
246	0xbdfad63d	-0.12247894
247	0x3e131a61	0.14365532
248	0xbc42653c	-0.0118649565
249	0x3dfa982d	0.122360565
250	0x3d9abf88	0.07556063
251	0xbdfc2904	-0.123125106
252	0xbcd1d90f	-0.025616197
253	0xbd0f7b03	-0.035029422
254	0xbd5680f5	-0.052369077
255	0x3df7c2e6	0.12097721

fc1.bias f4 [16]
0	0x3ec3cd1f	0.38242432
1	0x3e957163	0.2918807
2	0x3ebb81d1	0.3662248
3	0x3e7eaf53	0.24871568
4	0x3f06c6c7	0.5264706
5	0x3ecb77c1	0.39739802
6	0xbe123734	-0.14278871
7	0x3cf0baa0	0.029385865
8	0xbda5a400	-0.08087921
9	0x3e2b4755	0.1672643
10	0x3f069d74	0.52584004
11	0xbdbe889a	-0.093033984
12	0x3edc416f	0.43018672
13	0xbc630859	-0.013856971
14	0xbd654c50	-0.05598098
15	0x3ef41f29	0.47680023

fc2.weight f4 [12, 16]
0	0xbe3ba5b2	-0.18324926
1	0x3eace536	0.33768624
2	0x3dee81f4	0.1164588
3	0x3e4f1f81	0.20226862
4	0x3ed1249a	0.40848237
5	0x3e800b16	0.25008458
6	0xbe696824	-0.22793633
7	0x3e39482a	0.18093935
8	0x3e2bf778	0.1679362
9	0x3e545dd6	0.2073892
10	0x3e74a5b1	0.23891331
11	0x3e70d61a	0.23519173
12	0xbdf2211f	-0.118227236
13	0xbe586ab6	-0.21134457
14	0xbe421aa4	-0.18955475
15	0x3e8a3527	0.26993677
16	0x3de49711	0.11161626
17	0x3e590b89	0.21195807
18	0x3d71a033	0.05899067
19	0xbe90cdae	-0.2828192
20	0x3e500573	0.20314579
21	0xbd90fe12	-0.0707971
22	0xbdfb399c	-0.122668475
23	0x3d2a2ad8	0.041544765
24	0xbe12a568	-0.1432091
25	0xbe73bcb8	-0.23802459
26	0xbe2e635e	-0.17030093
27	0x3b947f40	0.004531771
28	0xbd7b8655	-0.061407406
29	0xbe1a40a1	-0.15063716
30	0x3d95659c	0.07294771
31	0xbb235036	-0.0024919636
32	0x3ed1b64c	0.40959394
33	0x3eceb5e4	0.40373147
34	0x3f3152db	0.6926705
35	0x3e4443fd	0.1916656
36	0x3eb870ee	0.3602366
37	0x3e468ac6	0.19388875
38	0xbe312682	-0.17299846
39	0x3dfe8dac	0.124293655
40	0xbe086872	-0.13321093
41	0x3e958bf6	0.29208344
42	0x3e737331	0.23774411
43	0x3e5368b6	0.20645413
44	0x3ed753be	0.42056078
45	0xbe18b16f	-0.14911436
46	0xbd18ae88	-0.03727582
47	0x3f2d784b	0.6776168
48	0xbc3f4fa2	-0.011676701
49	0x3e57e111	0.2108195
50	0x3f08a005	0.5336917
51	0x38ed8fb4	0.000113278074
52	0x3dd15f46	0.1022325
53	0x3ee9bf4d	0.45653763
54	0xbe2e6c96	-0.1703361
55	0xbdaf809c	-0.08569452
56	0x3e335f4e	0.17516825
57	0x3eb37be4	0.3505546
58	0x3ecf8b49	0.40535954
59	0x3cffe590	0.031237394
60	0xbd100f46	-0.035170816
61	0xbe2492f9	-0.1607169
62	0xbe493ed2	-0.1965287
63	0x3f4b30db	0.7937142
64	0xbe0d301b	-0.13787882
65	0xbcde3041	-0.027122619
66	0xbdf3a24a	-0.118961886
67	0xbc63a7da	-0.013894999
68	0xbe4de9de	-0.20108745
69	0xbb8dbdde	-0.0043256124
70	0x3e1e0c54	0.1543439
71	0xbe709846	-0.23495588
72	0x3e2ac2e4	0.16675907
73	0xbbfbed24	-0.0076881815
74	0xbd05d76a	-0.032676138
75	0xbe5755ec	-0.2102887
76	0x3ddb2388	0.107001364
77	0x3d8be154	0.06830087
78	0x3e229564	0.158773
79	0xbe53b1aa	-0.20673242
80	0xbe7201ca	-0.23633495
81	0xbe253fbe	-0.16137597
82	0x3d66d3b0	0.056354225
83	0x3dcaaae0	0.09895873
84	0x3e062812	0.13101223
85	0xbe25f922	-0.16208318
86	0xbe32b3f4	-0.17451459
87	0x3e503212	0.203316
88	0xbe35b064	-0.17743069
89	0xbe37cb5e	-0.17948672
90	0xbdb4be38	-0.08825344
91	0xbe26f176	-0.16303048
92	0x3e6f3fa4	0.2336412
93	0x3e13eaf8	0.14445102
94	0xbd2b9088	-0.041885883
95	0x3e16b68e	0.14718077
96	0xbe73d4a6	-0.23811588
97	0x3d34d316	0.04414662
98	0xbc7c7854	-0.015409548
99	0x3e1a3121	0.15057804
100	0xbceb43ff	-0.028718947
101	0x3e8a6a28	0.27034116
102	0x3e71d1b3	0.2361515
103	0x3e2a5f74	0.16637975
104	0x3df99984	0.12187484
105	0x3e4feda3	0.20305495
106	0xbd90afd0	-0.070647836
107	0xbe660dc0	-0.22466183
108	0xbe925550	-0.28580713
109	0x3d312868	0.043251425
110	0xbe6b6bbe	-0.22990319
111	0x3eb93681	0.36174396
112	0x3d331de0	0.043729663
113	0xbdbc45a4	-0.091929704
114	0x3e688afc	0.22709268
115	0xbd2a4360	-0.04156816
116	0xbe508f26	-0.20367107
117	0x3d040740	0.032233477
118	0x3d5b2eb0	0.05351132
119	0xbde8e46c	-0.11371693
120	0xbd929564	-0.071574
121	0xbe7dbe6a	-0.24779668
122	0xbd55bbe8	-0.052181154
123	0xbe50e210	-0.20398736
124	0xbdc9d180	-0.09854412
125	0x3e166cae	0.14689896
126	0xbe2ad12c	-0.16681355
127	0x3dda026c	0.10644993
128	0x3e4522c6	0.19251546
129	0x3e0fa65d	0.14028306
130	0x3f128149	0.57228523
131	0x3e70286e	0.23452923
132	0x3d850161	0.06494404
133	0x3e9a1fff	0.30102536
134	0xbe4a371b	-0.19747584
135	0xbd97fa08	-0.074207366
136	0x3e225198	0.15851438
137	0x3ea6615f	0.32496163
138	0x3e876851	0.26446775
139	0x3d05bb70	0.032649457
140	0x3ecd5b89	0.40108898
141	0x3e1656e9	0.14681591
142	0xbe54ed14	-0.20793563
143	0x3ea24b6a	0.3169816
144	0x3d4612e2	0.04835785
145	0x3e44bd74	0.19212896
146	0xbd81205a	-0.06304999
147	0xbd98544c	-0.07437953
148	0xbe18779d	-0.14889379
149	0xbe00ad09	-0.12566008
150	0xbe5e7b77	-0.21726786
151	0x3d5592e0	0.052142024
152	0xbe76751e	-0.24068114
153	0x3e7ce9bd	0.24698539
154	0xbd694ece	-0.05695992
155	0x3d8365b8	0.06415886
156	0xbddc4883	-0.10756018
157	0x3d1c9ddf	0.038236495
158	0x3d5bf808	0.053703338
159	0x3eb64bb9	0.35604647
160	0x3f1f4e17	0.6222853
161	0x3eb0cffd	0.34533682
162	0x3f4bade8	0.79562235
163	0x3f024ea2	0.50901234
164	0x3f1bfa55	0.6092885
165	0x3f229942	0.635151
166	0xbe4324d6	-0.1905702
167	0x3d2a7080	0.041611195
168	0xbdca1a84	-0.09868339
169	0x3dc9d675	0.098553576
170	0x3f1a6a32	0.6031829
171	0x3e18e644	0.1493159
172	0x3e81f94f	0.2538552
173	0x3cd3b8c0	0.025844932
174	0xbe1c2212	-0.15247372
175	0x3f889963	1.067181
176	0xbdd61df5	-0.104549326
177	0x3e450388	0.19239628
178	0x3eb6aa96	0.35677022
179	0x3ead06d2	0.33794266
180	0x3e1014fd	0.14070506
181	0x3e77c322	0.24195531
182	0xbdc95da4	-0.09832314
183	0x3ddde230	0.108341575
184	0x3b963040	0.0045833886
185	0x3ec68d73	0.38779792
186	0x3eb87138	0.3602388
187	0x3e52dd7e	0.20592305
188	0x3eae9086	0.34094638
189	0xbe6ee0ce	-0.23327944
190	0xbdd54c34	-0.10414925
191	0x3f3d524a	0.7395369

fc2.bias f4 [12]
0	0x3eab07ea	0.33404475
1	0x3e7f2a4f	0.24918483
2	0x3e7d9e38	0.24767387
3	0x3c894296	0.016755383
4	0x3e0ddf21	0.13854648
5	0x3e098ec2	0.13433364
6	0xbd5c7077	-0.053818192
7	0x3df2c49c	0.118539065
8	0x3ed9d65c	0.42546356
9	0x3d8891e4	0.066684514
10	0x3f10bf0c	0.56541514
11	0x3e3c9c19	0.18418922

fc3.weight f4 [28, 12]
0	0x3e98fc41	0.29879954
1	0x3e448d84	0.19194609
2	0x3e22a756	0.15884146
3	0xbd948309	-0.072515555
4	0x3e6619bc	0.22470754
5	0x3d1538a0	0.036430955
6	0xbe4d4395	-0.20045312
7	0xbe1394a1	-0.14412166
8	0x3ef660b2	0.48120648
9	0x3d114a5d	0.03547131
10	0x3e9e259a	0.30888063
11	0x3ecb596d	0.39716664
12	0x3da7afd9	0.08187837
13	0x3e15ce30	0.14629436
14	0x3eb34682	0.3501473
15	0x3d80f109	0.06295974
16	0xbd39543c	-0.045246348
17	0x3e305a4a	0.17221943
18	0xbdc5acf3	-0.09652128
19	0xbe778c6b	-0.24174659
20	0xbe13bb9d	-0.14427038
21	0x3db6646c	0.08905873
22	0x3ef2356a	0.47306377
23	0x3c3967e6	0.011316275
24	0xbe054444	-0.13014323
25	0x3e46b55b	0.19405119
26	0x3e6ffbd3	0.23435907
27	0xbe7a8dd8	-0.24468172
28	0x3dd30628	0.103039086
29	0x3e68c8dc	0.22732872
30	0x3d058e90	0.03260666
31	0xbdfb3932	-0.122667685
32	0x3dfe9c83	0.12432196
33	0xbe64f9c0	-0.22360897
34	0xbd8a21f2	-0.06744756
35	0x3dd7c582	0.105357185
36	0xbe09c9c5	-0.13455875
37	0x3dfedfa4	0.12445
38	0xbd0c9dcc	-0.034330174
39	0xbdffd94a	-0.124926165
40	0x3e693214	0.2277301
41	0xbe0e8854	-0.13919193
42	0xbd878f6c	-0.066191524
43	0xbe3e8d9a	-0.18608704
44	0xbe25c117	-0.16186939
45	0xbe05a875	-0.13052543
46	0x3de7db7d	0.11321161
47	0x3eb05260	0.34437847
48	0xbe8c082f	-0.27349994
49	0x3e4ab6b9	0.19796266
50	0x3df2ec31	0.11861456
51	0xbd3debcd	-0.046367455
52	0x3d1168d0	0.035500348
53	0x3e87403e	0.264162
54	0x3db9ffb6	0.09081976
55	0xbe1a98b6	-0.15097317
56	0xbe9e625b	-0.30934414
57	0x3e144348	0.14478791
58	0x3ea20911	0.31647542
59	0xbc5addcc	-0.013358545
60	0x3d9afed7	0.07568138
61	0xbdea3d03	-0.11437418
62	0xbdd1fb85	-0.10253052
63	0xbd423f99	-0.047423933
64	0x3e478de8	0.19487727
65	0x3e4cf472	0.20015123
66	0xbe43dd31	-0.19127347
67	0xbd866a86	-0.065632865
68	0xbd8f858c	-0.07007894
69	0xbe03a94b	-0.12857549
70	0x3e67a320	0.22620821
71	0xbd0f89ed	-0.035043646
72	0xbd92e3aa	-0.0717233
73	0xbe28c73f	-0.16482256
74	0x3ed8d059	0.42346457
75	0xbbe01b5d	-0.0068391995
76	0x3dcc1e2b	0.099666916
77	0x3e01473e	0.12624833
78	0xbe4737bf	-0.19454859
79	0x3e7b6294	0.24549323
80	0xbdc484dd	-0.09595654
81	0xbde6effd	-0.11276243
82	0x3e99f5f0	0.30070448
83	0xbe1ac46e	-0.15113994
84	0x3ca51f98	0.020156667
85	0xbe9b218a	-0.30299026
86	0x3e63840f	0.22218345
87	0xbe1e88ae	-0.15481827
88	0xbe4bb1c0	-0.19892025
89	0xbe54c3af	-0.20777772
90	0xbca0b54f	-0.019617705
91	0x3d3a5758	0.045493454
92	0xbda04bdb	-0.07826968
93	0xbe928520	-0.2861719
94	0x3e03673d	0.12832351
95	0xbdf8acdd	-0.12142346
96	0xbd5df849	-0.05419186
97	0xbdd84c76	-0.10561459
98	0x3d939a2c	0.0720714
99	0x3e8cff85	0.27538696
100	0x3db28220	0.087162256
101	0x3e4d00ca	0.20019832
102	0x3db6e7f0	0.08930957
103	0xbe69c2ca	-0.22828212
104	0xbe933966	-0.2875473
105	0xbc31f06b	-0.010860543
106	0x3ccf560c	0.025309585
107	0x3e332360	0.17493963
108	0x3ee2fc5b	0.44333157
109	0x3e89080e	0.26763958
110	0x3e9351e0	0.28773403
111	0x3e913957	0.2836406
112	0xbe80dbcc	-0.25167692
113	0xbc7f31a0	-0.015575796
114	0x3eb4b2ec	0.35292757
115	0x3e12c9be	0.14334771
116	0x3ef23eb2	0.47313458
117	0x3e91ccdd	0.2847661
118	0x3e35cce0	0.17753935
119	0x3eddb87c	0.43304813
120	0x3f0f96be	0.5608939
121	0x3c58d382	0.013234021
122	0x3e2f2f33	0.17107849
123	0x3e217de3	0.15770678
124	0x3ce77840	0.028255582
125	0xbdfa2590	-0.12214196
126	0x3e1ba8ab	0.1520106
127	0xbe488fc2	-0.19586089
128	0x3e95dd45	0.29270378
129	0x3e832068	0.25610662
130	0x3ee770e9	0.4520333
131	0x3ed05bf4	0.40695155
132	0x3e317c18	0.17332494
133	0xbb963400	-0.0045838356
134	0x3edca1dc	0.4309224
135	0x3ed89c5b	0.4230679
136	0xbcbb2ff0	-0.022850007
137	0xbd116338	-0.035495013
138	0x3e545f8c	0.20739573
139	0x3e621f18	0.22082174
140	0x3eb415b8	0.3517282
141	0x3e3997bd	0.1812429
142	0x3f16a824	0.5885031
143	0x3dbfa1b4	0.09357014
144	0x3e96b94a	0.2943824
145	0x3e2ee4ba	0.1707944
146	0x3e933b4c	0.28756177
147	0x3eb4154b	0.35172495
148	0xbe8b6dda	-0.27232248
149	0xbe81a701	-0.25322726
150	0x3d1f412d	0.038880516
151	0x3cdbc0d0	0.026825339
152	0x3f03c6e6	0.5147537
153	0x3ea65f1f	0.32494447
154	0x3ee4588d	0.4459881
155	0x3e8dfdb3	0.2773262
156	0x3f0f15fb	0.55892915
157	0x3e9101b1	0.28321603
158	0x3e98f7cc	0.29876554
159	0x3ea36807	0.31915304
160	0x3e665d84	0.22496611
161	0xbda1757a	-0.07883735
162	0x3f0d12d6	0.55106866
163	0x3e640a38	0.22269523
164	0x3e66b6cd	0.2253067
165	0x3d4284d8	0.04748997
166	0x3efefee3	0.49803838
167	0x3ee9174f	0.45525596
168	0x3e8976bf	0.2684841
169	0x3dd7aa04	0.10530475
170	0x3f00384c	0.500859
171	0x3ea6a7ce	0.325499
172	0xbe80be70	-0.25145292
173	0x3de755d4	0.11295667
174	0x3d986706	0.07441525
175	0x3e69c3b8	0.22828567
176	0x3f0d96de	0.5530833
177	0x3d81c930	0.063372016
178	0x3ed3ea28	0.41389585
179	0x3dd0d7ec	0.10197434
180	0x3e179d39	0.1480607
181	0xbca79cd8	-0.020460531
182	0x3e3893f1	0.18025185
183	0x3e042808	0.12905896
184	0x3ae2d700	0.0017306507
185	0x3df18e74	0.11794749
186	0x3b81c60d	0.003960377
187	0x3e7d3148	0.2472583
188	0x3efc5301	0.49282077
189	0x3c88815f	0.016663251
190	0x3f1674f4	0.58772206
191	0x3eb7729a	0.35829622
192	0x3f054d54	0.5207112
193	0x3d83eb08	0.06441313
194	0x3f08adf2	0.5339042
195	0x3f047e54	0.5175526
196	0xbcb99c10	-0.022657424
197	0x3e02d0f8	0.12775028
198	0x3c3e5b04	0.0116183795
199	0xbd4bdbe0	-0.049770236
200	0x3f0e8ff8	0.5568843
201	0x3effe3cd	0.49978486
202	0x3de88e29	0.1135524
203	0x3ef4bd95	0.4780089
204	0x3ed63b20	0.41841984
205	0xbd3feef4	-0.046858743
206	0x3edba266	0.42897338
207	0x3e888992	0.26667458
208	0x3d8e6fc4	0.06954911
209	0x3cbe7120	0.023247302
210	0x3ecec719	0.40386274
211	0x3e28839c	0.16456455
212	0x3e479d97	0.1949371
213	0x3ec9c341	0.3940678
214	0x3f0afb77	0.54289955
215	0x3e926dd4	0.28599417
216	0xbea10236	-0.31447
217	0x3d84c10c	0.06482133
218	0x3ea93eea	0.33055812
219	0xbd303849	-0.043022428
220	0xbb563d00	-0.0032690167
221	0x3e8dfaae	0.27730316
222	0xbe5257ee	-0.20541355
223	0x3e4facde	0.20280787
224	0x3e04acde	0.12956569
225	0xbe148b8a	-0.14506355
226	0xbdd3773f	-0.10325479
227	0x3d5c1ace	0.0537365
228	0xbe436908	-0.19083035
229	0xbe7b0ef8	-0.24517429
230	0x3e7bacb4	0.245776
231	0x3d8d922c	0.06912646
232	0x3e67a494	0.22621375
233	0xbe3ecfc6	-0.18633947
234	0x3e201bc6	0.15635595
235	0x3c73e820	0.014886886
236	0xbe7118c0	-0.23544598
237	0x3de61e11	0.112362035
238	0x3e284db8	0.16435897
239	0xbe52143f	-0.20515536
240	0x3e09b83f	0.1344919
241	0x3d9e6cd3	0.077356
242	0xbdbc8a71	-0.09206093
243	0x3e6c933e	0.23103043
244	0xbe7ff233	-0.24994735
245	0xbbc55840	-0.006022483
246	0x3e131e9d	0.14367147
247	0x3e90067a	0.2812994
248	0xbda41475	-0.08011714
249	0xbda86ec8	-0.08224255
250	0x3e8eee8a	0.27916366
251	0xbd8c8e1c	-0.06863043
252	0xbe862486	-0.2619974
253	0x3de52151	0.11187995
254	0xbde10b81	-0.10988522
255	0x3daa4bb7	0.08315223

fc3.bias f4 [28]
0	0x3eb45e5a	0.35228235
1	0x3be1b9c8	0.006888602
2	0xbe659bfb	-0.22422783
3	0x3ebeeee2	0.37291628
4	0xbdbbf9eb	-0.091785274
5	0xbb17b8f8	-0.0023151021
6	0xbe72e417	-0.23719822
7	0xbdf43064	-0.11923292
8	0xbdb57e8d	-0.08862028
9	0x3d913762	0.070906416
10	0x3dc17843	0.09446766
11	0x3ee7d443	0.4527913
12	0x3ed58ae5	0.4170753
13	0x3e35b513	0.17744856
14	0x3ea4333e	0.32070345
15	0x3f2b1641	0.6683083
16	0x3f0c72e4	0.5486281
17	0x3dcf1e66	0.1011322
18	0x3d8f3db7	0.06994193
19	0x3e2c28de	0.16812465
20	0xbdec0532	-0.115244284
21	0x3d5a889d	0.05335294
22	0x3da0149c	0.07816431
23	0x3e034387	0.12818728
24	0x3e2faaa0	0.17154932
25	0x3d0a4220	0.033754468
26	0xbe7de8b2	-0.24795797
27	0xbe349c69	-0.1763779
