dqn_aggressive.pth (torch, 5070 bytes, 6 tensors)

fc1.weight f4 [16, 16]
0.4921324 0.4993265 0.40408823 0.33927992 0.66755766 0.11442278 0.15923275 1.0981075
-0.7530936 0.09038618 -0.4096815 0.6046642 -0.32943523 -0.21642163 0.82980967 -0.09360701
-0.14862698 -0.29267517 -0.6790574 -0.20904057 -0.44958302 0.14185025 -0.38870257 -0.07281828
-0.022184564 0.07826702 -0.09664687 0.20035997 0.21501586 0.390523 -0.1602142 0.7668282
0.23644698 -0.19061123 0.10994947 -0.08204573 0.09417037 0.1609841 0.19298291 0.1228951
-0.19197538 0.036890622 -0.21571907 0.10855508 0.057627242 -0.15699254 0.17485383 -0.25802138
1.2062486 1.2196481 1.0377873 1.5715835 1.3891965 0.6557934 0.38741896 1.0272039
-0.7858 0.029886715 0.34501255 0.75701666 -0.6407518 -0.16291901 0.4003906 -0.12774171
-0.05689788 0.41126892 0.26133832 0.6542512 0.13716847 0.0646915 1.2412882 0.009442635
-0.35398164 -0.78954124 0.28846857 0.2196982 -0.34675753 -0.2043683 0.5103328 -0.00828494
-0.07999338 0.73303235 0.8995185 0.64120495 0.88056505 0.49133652 0.54899293 0.004939959
0.13319014 -0.30895266 0.3630811 -0.05258456 -0.046882622 1.0374144 0.8724158 -0.2947995
1.118663 1.4497517 0.86683834 1.4655942 1.4372258 0.7848154 0.51013154 0.9700111
-0.04043958 0.22944799 0.43815035 0.29746035 -0.30690423 0.22925323 0.21846841 -0.4581421
1.1443837 0.43567163 0.60751665 0.7611824 0.53248495 0.72998714 -0.20928918 0.11791086
0.13757707 0.4035619 0.9480218 0.6152868 -0.22101818 -0.057369087 -0.20223488 -0.39601707
-0.63394386 -0.87811637 -0.5801221 -0.49953923 -0.85247415 -1.2417626 -0.37438303 1.2812077
-0.10169672 0.06011024 -0.54264647 0.044620633 0.21323751 -0.10565323 -0.04051483 0.36602098
0.23493217 0.031431362 0.15507412 0.22236837 -0.011284872 -0.5187688 0.054492224 1.5524379
-0.91846246 0.15975513 -0.65529394 0.5044161 0.032760788 -0.29092297 -0.2392784 0.028026529
0.9307687 1.1384465 0.4455063 1.3720142 1.2011033 0.7154463 0.75881517 0.49586785
-0.8305393 -0.3572063 0.53284514 0.91915226 -0.480443 -0.14675254 0.07247126 -0.041967575
-1.2783096 -1.2306035 -0.2604875 -1.0561321 -1.2465008 -0.651762 0.19240789 -0.55513453
-0.50455815 0.4213321 0.17753248 0.039352927 -0.059210476 -0.42142364 -0.5744164 0.8169992
0.27017897 0.01408451 0.8575691 0.6464153 -0.06591057 -0.4699205 0.56477064 -0.30793834
-0.2555668 0.23116918 -0.75943273 0.46981144 0.21668 -0.18349053 -0.21140549 -0.13026103
0.77749753 0.21439007 0.97506875 0.98314327 0.7117614 0.7244711 -0.8646641 0.7052034
0.17620513 0.79461783 0.056653548 0.3143855 -0.42933828 -0.4435904 -0.0137523515 -0.5094229
-0.11129905 -0.33381486 -0.050785013 0.20238554 0.032333538 -0.3926605 -0.37752864 0.87933207
-0.47626376 0.22472169 -0.6232102 0.28825548 0.14705132 1.056606 0.97689015 0.003991372
-0.1211538 -0.24537739 0.15239048 0.036235005 -0.0030209124 0.17048448 -0.24399772 -0.07906973
-0.23364168 -0.115495175 -0.023690432 -0.0626286 0.04727137 0.116444826 0.016564399 -0.23205155
00000000: c7f8 fb3e b9a7 ff3e a7e4 ce3e 19b6 ad3e
00000010: 0fe5 2a3f 7e56 ea3d e90d 233e c98e 8c3f
00000020: beca 40bf 641c b93d c6c1 d1be 46cb 1a3f
00000030: bcab a8be a29d 5dbe 686e 543f 08b5 bfbd
00000040: ac31 18be 85d9 95be b5d6 2dbf bb0e 56be
00000050: bf2f e6be 3141 113e 0604 c7be c021 95bd
00000060: 67bc b5bc 764a a03d cbee c5bd 2a2b 4d3e
00000070: 1e2d 5c3e a1f2 c73e 310f 24be da4e 443f
00000080: 281f 723e 972f 43be 302d e13d 9707 a8bd
00000090: 65dc c03d 04d9 243e 509d 453e 6db0 fb3d
000000a0: 3295 44be 9f1a 173d 76e5 5cbe 2052 de3d
000000b0: 8b0a 6c3d a7c2 20be e20c 333e 611b 84be
000000c0: 5b66 9a3f 6e1d 9c3f 37d6 843f a629 c93f
000000d0: 31d1 b13f 14e2 273f c75b c63e 6b7b 833f
000000e0: 302a 49bf fcd4 f43c 7ca5 b03e d8cb 413f
000000f0: 4f08 24bf 3ed4 26be ffff cc3e b9ce 02be
00000100: c00d 69bd d791 d23e 23ce 853e 027d 273f
00000110: e475 0c3e fa7c 843d 88e2 9e3f 48b5 1a3c
00000120: 153d b5be 601f 4abf 27b2 933e 91f8 603e
00000130: 348a b1be ec45 51be 2ca5 023f 8fbd 07bc
00000140: 92d3 a3bd 02a8 3b3f d846 663f 0226 243f
00000150: b66c 613f 7690 fb3e cd8a 0c3f 61df a13b
00000160: ff62 083e 0b2f 9ebe c4e5 b93e e862 57bd
00000170: fe07 40bd ffc9 843f a456 5f3f f6ef 96be
00000180: 5930 8f3f 7791 b93f 1ee9 5d3f 9798 bb3f
00000190: 04f7 b73f a9e9 483f fb97 023f a652 783f
000001a0: f9a3 25bd 6af4 6a3e 3e55 e03e b94c 983e
000001b0: 8d22 9dbe 5cc1 6a3e 2fb6 5f3e 9a91 eabe
000001c0: 2a7b 923f 5a10 df3e 3686 1b3f dadc 423f
000001d0: ef50 083f 70e0 3a3f e74f 56be 407b f13d
000001e0: 01e1 0c3e aa9f ce3e 8fb1 723f 7083 1d3f
000001f0: 9752 62be d9fb 6abd a916 4fbe c0c2 cabe
00000200: 254a 22bf 3ccc 60bf e282 14bf 9bc3 ffbe
00000210: bf3b 5abf 14f2 9ebf 22af bfbe 9dfe a33f
00000220: 5f46 d0bd 2836 763d e1ea 0abf 20c4 363d
00000230: ef5a 5a3e b860 d8bd e1f2 25bd 1a67 bb3e
00000240: 0f92 703e 2cbe 003d c0cb 1e3e 89b4 633e
00000250: 2fe4 38bc 08ce 04bf 3d33 5f3d 49b6 c63f
00000260: 5b20 6bbf d996 233e 58c1 27bf 6a21 013f
00000270: 2d30 063d dbf3 94be 6605 75be e497 e53c
00000280: dc46 6e3f 9db8 913f 6719 e43e 299e af3f
00000290: c1bd 993f 7d27 373f b641 423f 64e2 fd3e
000002a0: 399e 54bf bfe3 b6be 8a68 083f 904d 6b3f
000002b0: a0fc f5be 4c46 16be d06b 943d 31e6 2bbd
000002c0: a69f a3bf 6a84 9dbf 9e5e 85be 562f 87bf
000002d0: 578d 9fbf e0d9 26bf 9306 453e 4c1d 0ebf
000002e0: b92a 01bf d7b8 d73e 13cb 353e 8930 213d
000002f0: af86 72bd d7c4 d7be f40c 13bf dc26 513f
00000300: e654 8a3e b7c2 663c a689 5b3f 797b 253f
00000310: 1ffc 86bd 6b99 f0be cf94 103f 18aa 9dbe
00000320: a7d9 82be 9db7 6c3e 2f6a 42bf 208b f03e
00000330: 5de1 5d3e f1e4 3bbe ae7a 58be 2663 05be
00000340: 140a 473f 1289 5b3e 1b9e 793f 47af 7b3f
00000350: ff35 363f f076 393f a05a 5dbf 3688 343f
00000360: 1e6f 343e 136c 4b3f 8d0d 683d 23f7 a03e
00000370: 3ad2 dbbe 481e e3be 8b51 61bc 8a69 02bf
00000380: c2f0 e3bd c8e9 aabe f203 50bd 283e 4f3e
00000390: 2c70 043d cc0a c9be 6f4b c1be e81b 613f
000003a0: d8d8 f3be 711d 663e b48a 1fbf 3996 933e
000003b0: 9f94 163e de3e 873f 7915 7a3f 0eca 823b
000003c0: 7c1f f8bd 3644 7bbe 400c 1c3e 286b 143d
000003d0: 80fa 45bb 7c93 2e3e 8ada 79be 50ef a1bd
000003e0: c43f 6fbe bc88 ecbd 7012 c2bc 6c43 80bd
000003f0: a09f 413d a07a ee3d 10b2 873c ec9e 6dbe

fc1.bias f4 [16]
-0.23277798 0.7085559 -0.24412973 -0.16759029 -0.17057908 -0.4772161 -0.49359018 -0.38519964
0.2715159 0.15690838 -0.083291605 0.5350234 0.10902189 -0.49127284 -0.035692554 0.074860275
00000000: 5a5d 6ebe eb63 353f 25fd 79be ca9c 2bbe
00000010: 48ac 2ebe ab55 f4be dab7 fcbe e338 c5be
00000020: 2204 8b3e 97ac 203e ca94 aabd 4bf7 083f
00000030: de46 df3d 1d88 fbbe 5b32 12bd 5850 993d

fc2.weight f4 [12, 16]
0.6716163 -1.0673099 -0.03147712 0.23241065 0.5547658 0.17668813 0.37054116 -0.2539535
1.5513117 1.6015147 0.04482171 -1.4373198 -0.24384944 0.51665235 0.7600786 -0.22995356
0.12065453 -0.5618248 0.032651324 0.1295015 1.8244486 0.36518258 0.5281126 -0.04174338
-0.009514382 0.06658302 0.5069046 0.044973377 0.2782238 -0.75262004 0.17093487 0.0084347725
-0.24121854 -0.20658886 0.19981736 0.013855815 0.23463005 -0.1647923 -0.1395401 -0.13191935
-0.2468301 0.023792922 0.09382436 -0.19198552 -0.049547732 -0.021377802 -0.19415218 -0.11722624
0.21092571 -0.71756864 0.13615128 0.4439259 1.5415682 0.54699033 0.12414314 0.42113832
-1.6347368 0.4100415 0.79652447 0.11693219 1.0382524 -0.37541223 0.07274103 0.18792191
-0.16640925 0.20749104 0.14343193 0.0844146 0.065463275 -0.08667817 -0.24176157 -0.069570206
-0.04202556 -0.12779222 0.025085976 -0.22744429 0.017545164 -0.11959706 0.00047200918 0.015929103
0.738498 0.7340932 -0.016399989 0.56582576 0.49931923 -0.22779092 -0.084449194 -0.38964826
1.7145661 0.83599335 0.5182134 0.6960074 -0.25641733 -0.5285709 0.49540544 0.09086564
0.9051189 1.2571303 0.16327839 0.49511588 1.3127172 -0.34711218 -0.088557675 -0.9066003
2.8319075 2.0157266 0.44106337 0.3962604 -0.40995616 -0.5295185 1.2970965 -0.1345413
-0.1394037 -0.20640758 0.2294476 0.032571077 0.13550994 0.041816264 0.041579902 -0.08531359
0.03092894 -0.07596743 -0.21988162 -0.06346768 0.04656297 -0.09941581 -0.03133616 -0.056411535
0.21664436 -0.7812355 0.04911932 0.5158664 1.2935458 0.63538915 0.2422755 0.5154076
-1.1844691 0.83728445 0.55835146 -0.006875076 1.6954714 0.09775238 0.43068796 -0.24144787
1.1727471 -0.15232293 -0.13290462 1.0068077 0.009017299 0.47654045 0.6664766 0.6708252
0.98124474 3.2816133 0.7239867 -0.76203585 1.2177235 1.1933274 1.688678 -0.19491667
0.81439686 0.0632449 -0.16143833 0.9698399 1.0654424 1.1768911 0.9605389 0.45078152
4.3145366 2.651195 0.3147916 0.2843555 1.0230633 0.15052724 1.6733966 0.18147308
-0.20067415 0.15670991 0.1480822 0.006949872 -0.022173047 0.15977743 -0.119273394 -0.23134714
0.08130059 0.17476043 -0.17484364 -0.24323878 -0.24332744 0.17832872 -0.10582873 0.12480542
00000000: 0cef 2b3f 9c9d 88bf 27ee 00bd 0ffd 6d3e
00000010: 2205 0e3f bced 343e 92b7 bd3e 3106 82be
00000020: 6291 c63f 6ffe cc3f f896 373d 18fa b7bf
00000030: abb3 79be 5443 043f 8394 423f f278 6bbe
00000040: b919 f73d c0d3 0fbf 65bd 053d 0b9c 043e
00000050: 8887 e93f 36f9 ba3e 6332 073f 1bfb 2abd
00000060: 36e2 1bbc ae5c 883d 80c4 013f 0136 383d
00000070: 5a73 8e3e b5ab 40bf 8d09 2f3e 0032 0a3c
00000080: fe01 77be 088c 53be ec9c 4c3e 8003 633c
00000090: dc42 703e 50bf 28be 9ae3 0ebe de15 07be
000000a0: 08c1 7cbe 60e9 c23c fc26 c03d da97 44be
000000b0: 90f2 4abd 8020 afbc d4cf 46be 5014 f0bd
000000c0: e9fc 573e 94b2 37bf 3e6b 0b3e 414a e33e
000000d0: 1b52 c53f 8f07 0c3f c23e fe3d 719f d73e
000000e0: 0e3f d1bf f6f0 d13e 07e9 4b3f 257a ef3d
000000f0: 74e5 843f 0836 c0be 40f9 943d 9a6e 403e
00000100: 3067 2abe 8878 543e d2df 123e 90e1 ac3d
00000110: 9c11 863d 5384 b1bd 5890 77be d37a 8ebd
00000120: fe22 2cbd f7db 02be 1b81 cd3c 28e7 68be
00000130: e0ba 8f3c 4eef f4bd 0078 f739 c07d 823c
00000140: 340e 3d3f 88ed 3b3f 4559 86bc f5d9 103f
00000150: c5a6 ff3e 0642 69be b3f3 acbd fa7f c7be
00000160: e776 db3f a903 563f a2a9 043f 8a2d 323f
00000170: 2249 83be 6c50 07bf c8a5 fd3e c417 ba3d
00000180: dfb5 673f a5e9 a03f 7332 273e d47f fd3e
00000190: 1e07 a83f b0b8 b1be ba5d b5bd f516 68bf
000001a0: f93d 3540 aa01 0140 0fd3 e13e a5e2 ca3e
000001b0: c6e5 d1be 868e 07bf 4207 a63f 32c5 09be
000001c0: d8bf 0ebe 825c 53be 50f4 6a3e 4069 053d
000001d0: 1ec3 0a3e 8847 2b3d b04f 2a3d e4b8 aebd
000001e0: b05e fd3c d094 9bbd a628 61be 58fb 81bd
000001f0: d0b8 3e3d 849a cbbd 585a 00bd c80f 67bd
00000200: 05d8 5d3e 0dff 47bf 5731 493d d20f 043f
00000210: e992 a53f dda8 223f 1217 783e c1f1 033f
00000220: af9c 97bf 4658 563f 1ff0 0e3f 5148 e1bb
00000230: 3505 d93f 6632 c83d 2283 dc3e 1c3e 77be
00000240: 941c 963f 8bfa 1bbe 2618 08be 13df 803f
00000250: 4bbd 133c 1cfd f33e 369e 2a3f 33bb 2b3f
00000260: db32 7b3f f405 5240 3157 393f c814 43bf
00000270: 5dde 9b3f f4be 983f 9a26 d83f 3c98 47be
00000280: 507c 503f 8b86 813d 1750 25be 6d47 783f
00000290: 6b60 883f 5ea4 963f e1e5 753f d6cc e63e
000002a0: af10 8a40 2ead 2940 5d2c a13e 0b97 913e
000002b0: bdf3 823f d023 1a3e dc31 d63f 14d4 393e
000002c0: 867d 4dbe 9078 203e dca2 173e c0bb e33b
000002d0: 40a4 b5bc b29c 233e 9c45 f4bd 44e6 6cbe
000002e0: ec80 a63d 66f4 323e 360a 33be 9613 79be
000002f0: d42a 79be ce9b 363e bcbc d8bd fc99 ff3d

fc2.bias f4 [12]
-0.4685314 -0.14489643 -0.018642128 -0.274323 -0.1070309 0.7048356 0.1840476 -0.11045542
-0.8354006 -0.578003 -0.14500332 -0.0023697615
00000000: 59e3 efbe bb5f 14be 60b7 98bc 1074 8cbe
00000010: 0433 dbbd 1b70 343f f976 3c3e 7436 e2bd
00000020: d0dc 55bf 01f8 13bf c07b 14be 004e 1bbb

fc3.weight f4 [10, 12]
0.51438975 0.7720441 -0.022353917 0.14227317 -0.13729617 0.7410109 1.5265223 0.26042002
0.5225677 0.45486173 0.73065716 -0.06478563 0.6367563 0.9402864 0.267224 -0.06604764
0.2583437 0.6023007 1.271492 0.011615515 0.4269665 0.41874212 0.89137125 -0.17866817
0.65853894 1.1013738 -0.16973019 0.11218801 -0.22747716 0.52329034 1.4646938 -0.27957332
-0.07056888 0.52424926 0.72978634 0.03929746 0.5064238 0.9104834 -0.12596975 0.27728972
0.20068547 0.5895232 1.3273662 0.2827524 0.11245812 0.4793997 0.91626346 0.25267524
0.48341376 0.91816306 -0.16162422 0.21354313 -0.12567887 0.91033185 1.4479533 -0.16016172
0.28380394 0.3732554 0.97095066 -0.08811028 0.7227749 0.96888125 -0.27054438 0.4458264
-0.15097688 1.1189585 1.6656262 -0.27276638 0.22040969 0.25897324 1.0686549 0.116918534
1.6308832 -0.48074454 0.023181498 -0.25777733 0.13036163 0.0291859 0.5779803 -0.08293292
0.28458294 1.1878886 0.5715767 -0.14401801 0.8727667 1.02397 0.10792217 1.4656005
0.033762336 -0.2670571 0.25294352 -0.12628368 1.4322606 0.3341043 0.18670706 0.07875571
0.2853397 0.38567132 -0.042189255 0.5317518 0.14086096 1.0472881 1.5187106 0.27848125
0.40633762 0.7642432 0.37747365 0.23909122 0.9402057 1.1444393 -0.040517405 0.4656586
-0.11137314 0.26268956 1.4363441 0.014552593 0.3590223 0.35328108 0.864221 0.21063301
00000000: 0caf 033f afa4 453f 901f b7bc 0fb0 113e
00000010: 5e97 0cbe e4b2 3d3f 1565 c33f c655 853e
00000020: ffc6 053f a3e3 e83e 590c 3b3f 54ae 84bd
00000030: 7602 233f 9cb6 703f 96d1 883e fc43 87bd
00000040: a045 843e 6130 1a3f 40c0 a23f 004f 3e3c
00000050: 5a9b da3e 5e65 d63e e830 643f caf4 36be
00000060: 0296 283f d1f9 8c3f c0cd 2dbe d4c2 e53d
00000070: c6ef 68be 5bf6 053f 167b bb3f 3c24 8fbe
00000080: 6b86 90bd 3335 063f 47d3 3a3f 60f6 203d
00000090: fda4 013f 7115 693f 37fe 00be ebf8 8d3e
000000a0: 7e80 4d3e feea 163f 23e7 a93f ecc4 903e
000000b0: 7150 e63d e173 f53e 3e90 6a3f a65e 813e
000000c0: 0282 f73e bc0c 6b3f d280 25be 0dab 5a3e
000000d0: f6b1 00be 820b 693f 8956 b93f 6f01 24be
000000e0: c04e 913e 551b bf3e 3990 783f 2a73 b4bd
000000f0: c707 393f 9a08 783f cb84 8abe 5c43 e43e
00000100: af99 1abe 083a 8f3f 3d33 d53f 09a8 8bbe
00000110: 14b3 613e 2498 843e afc9 883f fc72 ef3d
00000120: c8c0 d03f 2624 f6be 20e7 bd3c 64fb 83be
00000130: 857d 053e 4517 ef3c 84f6 133f bcd8 a9bd
00000140: dbb4 913e bc0c 983f da52 123f 7579 13be
00000150: a36d 5f3f 7311 833f 4c06 dd3d cc98 bb3f
00000160: 604a 0a3d b5bb 88be d081 813e 8250 01be
00000170: 5154 b73f b80f ab3e 2330 3f3e ac4a a13d
00000180: 0c18 923e b676 c53e a4ce 2cbd e320 083f
00000190: db3d 103e 890d 863f 1c65 c23f 1895 8e3e
000001a0: 7c0b d03e 71a5 433f 3a44 c13e 54d4 743e
000001b0: 52b1 703f fd7c 923f 94f5 25bd ce6a ee3e
000001c0: 9a17 e4bd 3f7f 863e 20da b73f 006e 6e3c
000001d0: c5d1 b73e 42e1 b43e 963d 5d3f 2eb0 573e

fc3.bias f4 [10]
1.0546488 -0.38678214 -0.3533769 0.46141806 0.6830029 1.3282442 -0.7323376 -0.5044034
-0.74258757 0.63723665
00000000: bbfe 863f 4f08 c6be d1ed b4be fd3e ec3e
00000010: 47d9 2e3f e803 aa3f 7a7a 3bbf 9520 01bf
00000020: 381a 3ebf f121 233f
