dqn_conservative.pth (torch, 5090 bytes, 6 tensors)

fc1.weight f4 [16, 16]
0	0x406d5710	3.7084389
1	0x3feeb448	1.8648767
2	0x3fdc164f	1.7194308
3	0x40d40c3a	6.6264925
4	0x40c4becc	6.1482906
5	0x408868af	4.2627788
6	0x3d0981bb	0.033570986
7	0x3f2c6153	0.67336005
8	0xc04afb5a	-3.1715913
9	0x3f96290b	1.1731275
10	0x3f77f37d	0.9685591
11	0x3f27f232	0.65603936
12	0xbefb74d2	-0.49112564
13	0xbf2af997	-0.66787094
14	0xbf737465	-0.9509948
15	0x3f82a5fd	1.0206906
16	0x406aea1f	3.6705396
17	0x407eb17e	3.9795833
18	0x4029f960	2.6558456
19	0x40bf3e05	5.9763207
20	0x40aeb5f4	5.459711
21	0x407b4681	3.9261782
22	0x3f305b03	0.6888887
23	0x3e2ab02c	0.16668767
24	0xc0615155	-3.520589
25	0x3f103d37	0.56343406
26	0x3f59e346	0.85112417
27	0x3f88d113	1.0688804
28	0xbf28261a	-0.6568314
29	0xbeceef6b	-0.40417036
30	0xbee030df	-0.43787286
31	0x3f42cc45	0.7609294
32	0x3fba8cc1	1.4574205
33	0x3f643a30	0.8915129
34	0x3fa66564	1.2999692
35	0x3fce933f	1.6138686
36	0x3fbe2429	1.4854785
37	0x3fcf63e2	1.6202357
38	0x3f7170d0	0.94312763
39	0x3f85646c	1.0421271
40	0x3f7f74bc	0.997875
41	0xbeaf46e0	-0.3423376
42	0xbe5778bd	-0.21042152
43	0xbe1262b5	-0.14295466
44	0xbf4b806d	-0.7949284
45	0xbfd2916f	-1.6450633
46	0xbeb923d3	-0.36160144
47	0x3f78f95f	0.9725551
48	0x40540805	3.3129895
49	0x3fc9635c	1.5733447
50	0x3fe71b96	1.8055294
51	0x40cc4842	6.3838205
52	0x40c0b844	6.0224934
53	0x407b056d	3.9222062
54	0x3dff3978	0.12462133
55	0x3f4efc6d	0.8085392
56	0xc047c09b	-3.1211307
57	0x3fa41565	1.2819029
58	0x3f7bd54a	0.9837233
59	0x3f5608da	0.83607256
60	0x3c16e0e9	0.009208896
61	0xbe191515	-0.14949448
62	0xbf84fc0e	-1.0389421
63	0x3f77b3b2	0.9675857
64	0xbe6eaac2	-0.23307326
65	0x3dfe15ec	0.12406525
66	0xbdc1a300	-0.09454918
67	0x3deb537c	0.11490533
68	0xbd4baab8	-0.049723357
69	0xbe482a45	-0.19547375
70	0x3e2418ba	0.16025057
71	0xbc8448a6	-0.016147923
72	0xbe9479ef	-0.28999278
73	0xbea12aa7	-0.31477854
74	0xbe5902a9	-0.21192421
75	0xbdeabdb8	-0.11461967
76	0x3da7db64	0.08196142
77	0x3e271a8c	0.1631872
78	0x3e68bada	0.22727528
79	0xbe916ca7	-0.28403208
80	0x407fdee6	3.9979796
81	0x406c37e2	3.6909108
82	0x401c30c0	2.4404755
83	0x40c2bbd0	6.0854263
84	0x40bd67f6	5.9189405
85	0x40729a90	3.7906837
86	0x3f1f0b6e	0.62126815
87	0x3f373347	0.7156262
88	0xc071d810	-3.7788124
89	0x3e7f94df	0.24959134
90	0x3e5850b4	0.21124536
91	0x3f509fab	0.81493634
92	0xbd93b10d	-0.07211504
93	0x3d88d3cd	0.06681023
94	0xbeacb247	-0.33729765
95	0x3f5717b2	0.8402053
96	0x3ff21420	1.8912392
97	0x400e0137	2.2188241
98	0x400f9814	2.243657
99	0x40609f5d	3.5097268
100	0x4029355e	2.6438823
101	0x4031aba8	2.776102
102	0x3faaf8a3	1.3357128
103	0x3fe7f38c	1.81212
104	0xbe304564	-0.1721397
105	0xbdbdf290	-0.09274781
106	0x3ee4fbec	0.4472345
107	0x3f5bcd3c	0.8586004
108	0xbf2668ee	-0.6500386
109	0xbfeb8a43	-1.8401569
110	0xbfb5602a	-1.4169972
111	0x3fa96606	1.323426
112	0x3f8a9000	1.0825195
113	0x3d5ba43b	0.05362342
114	0x3e2c1d51	0.16808058
115	0x3f9d02a4	1.2266431
116	0x3fcdd9f2	1.6082137
117	0x3f9d368f	1.2282275
118	0xbd9d4c16	-0.07680528
119	0x3cd5e392	0.02610949
120	0x401c02b7	2.4376657
121	0xbd6e70cd	-0.058213044
122	0xbde4b7e5	-0.111678876
123	0xc0000215	-2.000127
124	0xbe95e990	-0.29279757
125	0xbddd0019	-0.10791034
126	0xbdcc10d2	-0.09964146
127	0x3ed6b4fd	0.41934958
128	0x3feaeb2e	1.8353021
129	0x3ed60d98	0.41807246
130	0x3e8cf85e	0.2753324
131	0x40989ce4	4.7691517
132	0x40988a33	4.76687
133	0x402f4887	2.7388017
134	0xbe52b60d	-0.2057726
135	0x3f87ae32	1.0600035
136	0xc06d39b1	-3.7066462
137	0x3f8f14fb	1.1178278
138	0x3f3ffb95	0.7499326
139	0x3fb33b8c	1.4002547
140	0xbe4bcebb	-0.1990308
141	0xbee7cfb0	-0.4527564
142	0xbee1abfd	-0.4407653
143	0x3f84cd8b	1.0375227
144	0x4072df9d	3.7948983
145	0x3fa079fb	1.2537225
146	0x3ff1c85c	1.888927
147	0x40ca48b7	6.3213763
148	0x40be0955	5.938639
149	0x409e8a9e	4.954421
150	0xbf8fb674	-1.1227555
151	0x3cdd16d4	0.026988424
152	0xbf6ca1b0	-0.92434216
153	0x40041e07	2.0643327
154	0x3ff9a4aa	1.9503376
155	0x3fab913c	1.3403697
156	0xbe8dcfd7	-0.27697632
157	0xbf41d62b	-0.7571742
158	0xbf22e0b6	-0.6362413
159	0x3fadf5a4	1.3590589
160	0x4040aa21	3.0103838
161	0x40003bea	2.0036569
162	0x3fd8635b	1.6905321
163	0x40b8c118	5.773571
164	0x40b8a199	5.7697263
165	0x4081948a	4.049382
166	0x3ec878c0	0.39154625
167	0x3f8b6b1e	1.0892065
168	0xc04e0c29	-3.2194922
169	0x3f295761	0.66148955
170	0x3f4b62bb	0.79447526
171	0x3f89cfe5	1.0766569
172	0xbf80255b	-1.00114
173	0xbfce469e	-1.6115301
174	0xbf62a945	-0.88539535
175	0x3f9c31f6	1.2202747
176	0x3f93d293	1.1548637
177	0x3f602d59	0.87569195
178	0x3fc4e35f	1.5381888
179	0x3fb8cd87	1.4437722
180	0x3f2ae5a9	0.66756684
181	0x3f9a476c	1.2053046
182	0x3f3afecb	0.73045033
183	0x3f6e4d25	0.93086463
184	0x3e879fac	0.26489007
185	0xbf9cb8de	-1.2243917
186	0xbf9c386f	-1.2204722
187	0xbf09b9be	-0.53799045
188	0xbf86432c	-1.0489249
189	0xbfa2be63	-1.2714351
190	0xbd29e960	-0.04148233
191	0x3ebf21f1	0.37330583
192	0x404b523c	3.1768942
193	0x3fa3598c	1.2761703
194	0x3fe17bd1	1.7615911
195	0x40a6ac08	5.2085
196	0x40982bba	4.7553377
197	0x408fc8ba	4.4932528
198	0xbf558dae	-0.8341931
199	0xbebffdd3	-0.3749834
200	0xbd54fb5e	-0.051997535
201	0x4000a164	2.0098505
202	0x4014081c	2.312995
203	0x3f9628a4	1.1731153
204	0xbe8ccb0b	-0.2749866
205	0xbf0a8135	-0.54103404
206	0xbf6f9779	-0.93590504
207	0x3f82446e	1.0177133
208	0x3d089800	0.033348083
209	0x3e6d8fa4	0.23199326
210	0x3d257a80	0.04040003
211	0x3e429322	0.19001439
212	0x3c3a0e60	0.011355966
213	0xbe50a606	-0.20375833
214	0x3dba94a8	0.09110385
215	0xbdf6ac38	-0.12044567
216	0xbdfef77c	-0.12449548
217	0xbe21332e	-0.1574218
218	0xbe1f346c	-0.15547341
219	0x3d159538	0.03651926
220	0xbe5c77e8	-0.21530116
221	0x3c9773c0	0.018487811
222	0x3d1666d8	0.036719173
223	0xbe72324e	-0.23652002
224	0x4065ec52	3.5925488
225	0x4062182d	3.5327256
226	0x4012f9a8	2.2964878
227	0x40accf4f	5.400306
228	0x409f7413	4.982919
229	0x405d8d91	3.4617655
230	0x3ecb78ed	0.39740697
231	0x3f1c8d56	0.6115316
232	0xc0693075	-3.6435826
233	0x3f38edf9	0.7223812
234	0x3f114051	0.56738764
235	0x3fc0ffd8	1.5078077
236	0xbd9c3e7e	-0.07629107
237	0x3ee72c95	0.451512
238	0x3de30a5e	0.11085962
239	0x3eac6ed8	0.33678317
240	0x3fe1a6bc	1.7629008
241	0xbe7f77d9	-0.24948062
242	0x3e98a0f5	0.298103
243	0x405bee40	3.4364166
244	0x403a66f3	2.9125335
245	0x405dd59f	3.4661634
246	0xbf851802	-1.0397952
247	0x3d458436	0.04822179
248	0x3f42eb1d	0.76140004
249	0x3ff81ce3	1.9383816
250	0x3fda28a5	1.7043654
251	0x3fb92196	1.4463375
252	0xbe25f186	-0.16205415
253	0xbeb515e4	-0.35368264
254	0xbdc500ac	-0.09619269
255	0x3f6be532	0.921466

fc1.bias f4 [16]
0	0x3f60d6a6	0.8782753
1	0x3eec52e3	0.46156988
2	0x3f55dbd7	0.83538574
3	0x3fa37b93	1.2772087
4	0xbea0eab7	-0.31429073
5	0x3f5177a5	0.8182319
6	0x3f9d8d3f	1.230873
7	0x3f0e5299	0.55594784
8	0x3f4efd85	0.8085559
9	0x3f98f00d	1.1948258
10	0x3f649cc9	0.89301735
11	0x3ec59adc	0.3859471
12	0x3fa4ac98	1.2865171
13	0x3d334f80	0.04377699
14	0x3ee5b52b	0.44864783
15	0x3f9ccb2e	1.2249506

fc2.weight f4 [12, 16]
0	0xbceba278	-0.028763995
1	0xbe100784	-0.14065367
2	0xbd025308	-0.031817466
3	0xbdd39d48	-0.103327334
4	0xbe55418a	-0.20825782
5	0xbe0c3df8	-0.13695514
6	0xbd8d2590	-0.0689193
7	0x3d72f724	0.059317723
8	0xbcfec2f9	-0.03109883
9	0x3e2f8aff	0.17142867
10	0x3e392e61	0.18084098
11	0xbe47bbd1	-0.1950524
12	0xbd90cf2a	-0.070707634
13	0x3e230610	0.15920281
14	0xbe33af80	-0.17547417
15	0xbe5e2f1b	-0.21697657
16	0x40314815	2.7700245
17	0x40671583	3.610688
18	0x3f8b5c37	1.0887517
19	0x400bf7d8	2.1870022
20	0x3ca3595b	0.019940069
21	0x4087204f	4.222694
22	0x403cbc1c	2.9489813
23	0xbce6bee6	-0.0281672
24	0x3ff8a280	1.9424591
25	0x3ff17d65	1.8866392
26	0x403968c0	2.8970184
27	0x3fb5cfa5	1.4203993
28	0x3fb85bfc	1.4403071
29	0xbd6d3f48	-0.057921678
30	0x401c3ca5	2.4412014
31	0x3f59e620	0.8511677
32	0x402bf3ed	2.686763
33	0x406c60c4	3.693406
34	0x3f8a1e99	1.0790588
35	0x401213d8	2.2824612
36	0xbe09d3be	-0.1345968
37	0x409183de	4.547347
38	0x403b8192	2.9297833
39	0xbe8f57df	-0.27996728
40	0x4012fc68	2.2966557
41	0x3ff63e28	1.9237719
42	0x403e49a9	2.9732459
43	0x3fa384f9	1.2774955
44	0x3fcf382b	1.6189016
45	0xbd4f4920	-0.050606847
46	0x4060eb26	3.5143523
47	0x3f8b911a	1.0903656
48	0xbdb53220	-0.08847451
49	0xbfdf2382	-1.7432711
50	0x3f38e441	0.7222329
51	0xbe81b542	-0.253336
52	0xbc9fa2ae	-0.019486751
53	0xbfaca64c	-1.348825
54	0x3eca305d	0.39490023
55	0x3f85af97	1.0444211
56	0xbd41f484	-0.04735233
57	0x3e5d778b	0.21627633
58	0xbe084315	-0.1330684
59	0x3f2be12e	0.6714047
60	0xbc0ef254	-0.008724768
61	0x3e1b713a	0.15179911
62	0xc00dda1a	-2.2164369
63	0x3edf9664	0.43669426
64	0xbde9ae1a	-0.1141016
65	0xbff00ca9	-1.8753864
66	0x3f01b931	0.50673205
67	0xbd3b3b60	-0.04571092
68	0xbdb6a236	-0.08917658
69	0xc0021908	-2.0327778
70	0xbf325865	-0.6966613
71	0x400213fb	2.0324695
72	0x3c633ff6	0.01387023
73	0x3f89b0e3	1.0757107
74	0xbf4dcbba	-0.8038899
75	0x3f166fda	0.5876442
76	0x3f7ae691	0.98008066
77	0xbe1db126	-0.15399608
78	0xbfba556c	-1.4557319
79	0x3f8d95a5	1.1061293
80	0xbe6167dc	-0.22012275
81	0xbf796edf	-0.974348
82	0x3e10bb45	0.14133938
83	0xbe5f34b2	-0.21797445
84	0x3def7477	0.11692136
85	0xbfe6a89e	-1.8020208
86	0xbf8d0c59	-1.1019393
87	0x3fdc502c	1.7211967
88	0xbf0dbb41	-0.5536385
89	0x3f6e1a04	0.93008447
90	0xbe9ba532	-0.30399472
91	0xbdf6daad	-0.12053428
92	0x3f83ae53	1.0287575
93	0xbe76a872	-0.24087694
94	0xbf687b10	-0.9081278
95	0x3f61badf	0.8817577
96	0xbe1543a8	-0.1457659
97	0xbf87ce1a	-1.0609772
98	0x3eda275e	0.4260816
99	0x3d5fa404	0.054599777
100	0x3de44c02	0.1114731
101	0xbfe5e398	-1.7960081
102	0xbec2050a	-0.3789447
103	0x3f480fac	0.78148913
104	0x3f18b437	0.59649986
105	0x3e5a4c89	0.21318258
106	0xbf064922	-0.5245534
107	0x3e7805bd	0.24220939
108	0x3eb6153a	0.3556307
109	0xbe194444	-0.14967448
110	0xbf8701e8	-1.0547457
111	0x3f118ca6	0.5685524
112	0xbcb220a2	-0.021744076
113	0xbfbc42a6	-1.470784
114	0x3e9b142c	0.30288827
115	0x3ece2f25	0.40270343
116	0xbe64d9a9	-0.22348656
117	0xbfd7da13	-1.6863426
118	0xbf9ec053	-1.2402443
119	0x3f37fcb9	0.7187
120	0x3f191785	0.5980151
121	0x3f067304	0.5251925
122	0xbed3e32f	-0.41384265
123	0x3ebbeccc	0.367041
124	0x3ef60160	0.48047924
125	0xbc2187a0	-0.009858996
126	0xbf978c1c	-1.1839633
127	0x3f8187c9	1.0119563
128	0xbe03a68b	-0.128565
129	0xbdb53a4d	-0.088490106
130	0xbd90f12a	-0.070772484
131	0xbe007544	-0.12544733
132	0xbe6706ee	-0.22561237
133	0x3e2b002a	0.16699281
134	0xbe557498	-0.20845258
135	0x3ddbb60e	0.107280836
136	0x3d00a3ba	0.03140614
137	0x3e706200	0.23474884
138	0x3c884357	0.016633673
139	0xbce72d10	-0.02821973
140	0x3da88faa	0.08230527
141	0x3dd3aca8	0.10335666
142	0xbd81595e	-0.063158736
143	0xbe54357e	-0.2072353
144	0xbef506ed	-0.47856846
145	0xbe9baa1f	-0.3040323
146	0x3f82663b	1.0187448
147	0x3e25e19a	0.16199341
148	0xbddf1e50	-0.108944535
149	0x3ebd3611	0.36955312
150	0xbcc7f3f7	-0.024408324
151	0x3feca144	1.8486714
152	0xbe8828f3	-0.26593742
153	0x3e496637	0.19667898
154	0xbf892586	-1.0714576
155	0x3f6bf99f	0.92177767
156	0xbe156a2e	-0.14591286
157	0x3d9b9f1c	0.07598707
158	0x3eef5345	0.46743217
159	0xbcb91f3d	-0.022597903
160	0xbe89022f	-0.26759478
161	0x3e2eb9bd	0.17063041
162	0xbe260ac8	-0.1621505
163	0x3ce8cca4	0.028417893
164	0xbe3da292	-0.18519047
165	0x3d339eac	0.043852493
166	0x3d810420	0.06299615
167	0x3e1c8fce	0.15289232
168	0xbcfcaf48	-0.0308453
169	0x3e4f4272	0.2024019
170	0xbd255f3f	-0.040374037
171	0xbdb4e88e	-0.08833419
172	0xbe814791	-0.25249913
173	0x3e28bb48	0.16477692
174	0xbe2af4c0	-0.16694927
175	0xbe40f610	-0.18843865
176	0x3dcd19b2	0.100146666
177	0xbf878865	-1.0588499
178	0x3f53dbdf	0.8275737
179	0x3e732274	0.23743612
180	0x3e0a5ef9	0.13512792
181	0xc0210e57	-2.5165002
182	0xbf351257	-0.7073111
183	0x3fd1ea2e	1.6399591
184	0xbe654f56	-0.22393546
185	0x3f38f2b3	0.7224533
186	0xbf18e45e	-0.5972346
187	0x3ed474cc	0.4149536
188	0x3f959700	1.1686707
189	0x3d37b7b8	0.044852942
190	0xbfd2a7d8	-1.6457472
191	0x3f7b0c51	0.9806567

fc2.bias f4 [12]
0	0xbe46f605	-0.19429787
1	0x3eab7b4c	0.33492506
2	0x3f4871c6	0.78298604
3	0x3e3f3d0d	0.18675633
4	0x3f2596dd	0.64683324
5	0x3f66b2e7	0.90116733
6	0x3e8851b3	0.26624832
7	0x3f1c4136	0.61037004
8	0xbe487038	-0.19574058
9	0x3e9d7151	0.30750516
10	0x3dfc941a	0.12332936
11	0x3ed568ad	0.41681424

fc3.weight f4 [10, 12]
0	0xbe83c3a7	-0.25735208
1	0x3fcd55a0	1.6041756
2	0x3fa9f479	1.3277732
3	0x4029c166	2.652429
4	0xbf84103b	-1.0317453
5	0xc04bd223	-3.1847007
6	0x400f2b64	2.2370234
7	0xbf4eb3e8	-0.80743265
8	0x3e4ec35e	0.20191714
9	0xbe1e3b30	-0.15452266
10	0xbe565bc3	-0.20933442
11	0xbf8eb040	-1.1147537
12	0xbe863816	-0.26214665
13	0x3fbfa714	1.4972863
14	0x3fb0ec25	1.3822066
15	0x400eb80e	2.2299838
16	0xbf83d003	-1.0297855
17	0xc045c002	-3.0898442
18	0x3fc53507	1.5406808
19	0xbf83377a	-1.0251305
20	0xbe24e91b	-0.16104548
21	0xbcd1efd9	-0.025627064
22	0xbd70cec0	-0.058790922
23	0xbfa7b977	-1.3103474
24	0x3dea9d3b	0.114557706
25	0x3fb61394	1.4224725
26	0x3fa26bee	1.2689188
27	0x3fa49f5b	1.2861131
28	0xbf8e2b26	-1.1106918
29	0xc013206e	-2.2988544
30	0x3f52908c	0.8225181
31	0x3e8f1261	0.2794371
32	0xbd70cb08	-0.058787376
33	0xbfbaf1fb	-1.4605097
34	0xbbdbb380	-0.0067047477
35	0xbf15b647	-0.5848126
36	0xbc211f4f	-0.009834125
37	0x3fdfd819	1.7487823
38	0x3f8e03ee	1.1094949
39	0x402d7b80	2.7106628
40	0xbff732cf	-1.931238
41	0xc032c510	-2.7932777
42	0x4020afdf	2.5107343
43	0xbf5a77e2	-0.85339177
44	0xbdfd48f2	-0.12367429
45	0xbdc9a990	-0.098467946
46	0xbe37cd48	-0.17949402
47	0xbfa6f758	-1.3044233
48	0x3bec8440	0.007217914
49	0x3fb6a71e	1.426975
50	0x3fb24f65	1.3930479
51	0x401dc739	2.4652846
52	0xbfb9d05c	-1.4516711
53	0xc040953e	-3.009109
54	0x4018c8ad	2.3872483
55	0xbf902fff	-1.1264647
56	0xbe1dc0a2	-0.15405515
57	0x3f3c4864	0.7354796
58	0xbcb24860	-0.021763027
59	0xbfb96f26	-1.4487045
60	0x3e7cdedd	0.2469439
61	0x3fdf1409	1.7427989
62	0x3f8f5cbb	1.1200174
63	0x402acb74	2.6686678
64	0xbfb59fcd	-1.4189392
65	0xbffa8fca	-1.9575131
66	0x3fe252b0	1.7681484
67	0xbf9f1092	-1.2426932
68	0x3cf09330	0.02936706
69	0x3f916f61	1.1362115
70	0xbc8fadaf	-0.017538873
71	0xbfb1ae6c	-1.3881354
72	0xbdba6e91	-0.0910312
73	0x3fb8c12f	1.4433955
74	0x3fe7b6f5	1.8102709
75	0xbef3150e	-0.47477
76	0xbfa5ddec	-1.295835
77	0xbfd520f7	-1.6650685
78	0x3edbd582	0.4293633
79	0xbfd2425b	-1.64265
80	0x3e3e3774	0.18575841
81	0xbeffdf65	-0.49975124
82	0x3e212fe1	0.1574092
83	0xbfd50fe0	-1.664547
84	0x3c8adda8	0.016951397
85	0x3fd037ce	1.626703
86	0x3fd34faf	1.6508693
87	0xbf0e7727	-0.5565056
88	0xbfda3a1b	-1.7048982
89	0xbf959d15	-1.1688563
90	0xbd516bd4	-0.051128224
91	0xbfd93a52	-1.6970923
92	0x3e10cb41	0.14140035
93	0xbf9b4193	-1.2129387
94	0x3cd51d5d	0.026014978
95	0xbf7babe1	-0.9830914
96	0xbe07eba1	-0.13273479
97	0x3fb69e0c	1.4266982
98	0x4003de69	2.0604498
99	0xbfc2b747	-1.5212182
100	0xc00a9c97	-2.1658075
101	0xc04f55db	-3.2396152
102	0xbe782c03	-0.24235539
103	0xbf761bed	-0.9613636
104	0xbda5b8aa	-0.080918625
105	0xbe64dc74	-0.22349721
106	0xbe0c4d15	-0.1370128
107	0xc012d5dd	-2.2943032
108	0x3e93fe30	0.28904867
109	0x3fae0afc	1.3597102
110	0x3fcf0061	1.6171991
111	0x3fac1aff	1.3445739
112	0xc00b786b	-2.1792247
113	0xc0362e2a	-2.8465676
114	0x406961b3	3.646588
115	0xbeadb0ea	-0.33924037
116	0xbc4c550a	-0.012471447
117	0x3f6ac010	0.91699314
118	0xbe91bc27	-0.2846386
119	0xbfff30a1	-1.9936715

fc3.bias f4 [10]
0	0x3ea4845c	0.32132232
1	0xbed67fbf	-0.41894338
2	0xbf6a8298	-0.9160552
3	0xbdf196b8	-0.117963254
4	0xbede2863	-0.43390188
5	0x3f7608f9	0.9610744
6	0xbf09a610	-0.53769016
7	0xbe3aeb80	-0.18253899
8	0x3fbbe71a	1.4679902
9	0x3f946f32	1.1596434
