dqn_conservative.pth (torch, 7586 bytes, 6 tensors)

fc1.weight f4 [16, 40]
0.51791364 0.6240843 0.50686413 0.13747668 0.3570911 0.18734127 0.019269006 0.15800506
0.415057 0.40112954 0.40641454 0.33718708 0.52314055 0.43530342 0.42393774 0.40398294
0.43461245 0.5597535 0.3384589 0.48406866 0.3927363 0.28775004 0.31740633 0.40064448
0.4351001 0.40840253 0.24450818 0.041629445 0.15721792 0.040079772 0.4397774 0.3092307
0.34140754 0.31948224 0.33489475 0.14415692 0.35622475 0.39217755 -0.04990408 0.3086076
0.37924048 0.53528655 0.584339 0.38863367 0.34025532 0.32502234 0.2629707 0.27726844
0.43675357 0.3863591 0.42695546 0.34317437 0.7121482 0.4093889 0.46469694 0.43016338
0.3262065 0.6104578 0.36167556 0.52734965 0.58675784 0.47162512 0.5300824 0.39793673
0.46332872 0.45856816 0.5253587 -0.18795414 -0.06954131 -0.07843382 0.03504621 -0.09573894
-0.0757635 0.21138446 0.13671176 -0.13307638 0.10088258 0.08870125 -0.046971407 0.5045064
0.0023229867 -0.025877267 -0.050748713 0.059736013 -0.020009652 -0.03130409 -0.04541658 0.069872305
0.12142114 0.13561098 0.027005926 -0.053401016 -0.049987264 0.06525415 0.034710243 -0.09242992
0.14001377 0.024612188 0.045568824 -0.10984631 -0.07277131 -0.005735755 -0.079486124 0.0043456703
0.02739352 0.0015092343 -0.051678002 -0.093004465 -0.093414046 -0.15130518 0.035121173 -0.067122824
0.012748897 -0.07349614 -0.10788439 0.045790702 0.09092441 -0.09088273 0.11061673 -0.092877425
0.16011994 0.20077746 0.0710537 -0.014450214 0.10718752 -0.26104215 -0.5100686 0.23284961
0.23647735 0.02418191 -0.24561487 0.047320236 0.037710413 -0.003837867 0.010517312 0.085592605
-0.12517498 -0.15425016 0.17664559 0.45143265 0.09961836 0.061824605 -0.03174075 0.0430421
0.27408338 0.101551354 0.057469472 0.45425063 0.36377305 0.5088654 0.24506502 0.4296415
0.48297992 0.42621022 0.27557084 0.3177619 0.3672705 0.5095818 0.2061501 0.2654544
0.6574419 0.55945283 0.6154087 0.4472835 0.40969288 0.54797596 0.39824608 0.43491963
0.4206722 0.56863004 0.6428534 0.39545625 0.59803945 0.66303384 0.71425164 0.52247703
0.43994924 0.6122925 0.67223305 0.59879744 0.68190414 0.6116086 0.51594114 0.5516948
0.5222635 0.50154364 0.6409316 -0.21090597 -0.13292126 -0.12609562 0.089902446 -0.047788914
0.057795495 -0.025104428 0.110206604 -0.21414815 0.27463695 0.1063193 0.12694877 0.5598874
0.086670965 -0.12517406 -0.046318404 -0.14704217 -0.10923667 -0.14140901 -0.05890716 0.025639927
-0.08969773 -0.11502625 0.045685932 -0.12764512 0.14267744 -0.15038903 -0.12504004 -0.070685714
0.04942292 0.013106523 -0.14732565 0.107401714 0.054766424 -0.09258802 -0.105511405 0.11997676
0.028525176 0.14234942 -0.1314998 0.086744815 -0.09862681 0.08500144 0.04453872 -0.12410571
0.008644415 -0.1563096 0.03357172 -0.06202185 0.052951053 -0.08640569 -0.07410146 -0.12863483
0.64986056 0.6686198 0.5163473 0.22321527 0.5861129 0.30254018 0.31485546 0.5441215
0.5713892 0.4673333 0.8041758 0.51137847 0.5588289 0.6230639 0.7775306 0.6157277
00000000: fd95 043f fdc3 1f3f d9c1 013f b0c6 0c3e
00000010: a5d4 b63e 64d6 3f3e 09da 9d3c 14cc 213e
00000020: 5a82 d43e da60 cd3e 9115 d03e c9a3 ac3e
00000030: 8aec 053f 17e0 de3e 5e0e d93e dad6 ce3e
00000040: 8685 de3e 014c 0f3f 7c4a ad3e d9d7 f73e
00000050: bb14 c93e f953 933e 1583 a23e 4621 cd3e
00000060: 71c5 de3e 231a d13e 5a60 7a3e a383 2a3d
00000070: bcfd 203e b02a 243d 812a e13e 7c53 9e3e
00000080: f8cc ae3e 2d93 a33e 5377 ab3e df9d 133e
00000090: 1763 b63e 7fcb c83e 3868 4cbd d101 9e3e
000000a0: cf2b c23e 8a08 093f 3e97 153f fefa c63e
000000b0: f235 ae3e 5469 a63e 18a4 863e 21f6 8d3e
000000c0: 2a9e df3e dcd0 c53e e899 da3e 8db4 af3e
000000d0: 584f 363f 6c9b d13e c2ec ed3e 603e dc3e
000000e0: 8a04 a73e f646 1c3f 8a2d b93e 6300 073f
000000f0: c335 163f d978 f13e 7bb3 073f 5dbe cb3e
00000100: 6c39 ed3e 72c9 ea3e e87d 063f 0d77 40be
00000110: ad6b 8ebd e9a1 a0bd 9d8c 0f3d c712 c4bd
00000120: e529 9bbd 2b75 583e 2bfe 0b3e 2d45 08be
00000130: 879b ce3d 00a9 b53d 1765 40bd 5527 013f
00000140: 403d 183b 90fc d3bc e2dd 4fbd c0ad 743d
00000150: 48eb a3bc b838 00bd bc06 3abd 3619 8f3d
00000160: a6ab f83d 9bdd 0a3e 883b dd3c 06bb 5abd
00000170: 72bf 4cbd f8a3 853d 542c 0e3d e64b bdbd
00000180: c55f 0f3e 809f c93c 60a6 3a3d 1af7 e0bd
00000190: 2009 95bd 00f3 bbbb 9fc9 a2bd 2066 8e3b
000001a0: 6068 e03c 80d1 c53a 50ac 53bd 2079 bebd
000001b0: dd4f bfbd bfef 1abe 38db 0f3d b177 89bd
000001c0: c0e0 503c 2585 96bd 7ef2 dcbd 088f 3b3d
000001d0: 9436 ba3d ba20 babd 068b e23d 8536 bebd
000001e0: 7bf6 233e 9b98 4d3e 9a84 913d 97c0 6cbc
000001f0: 2185 db3d 51a7 85be db93 02bf 2170 6e3e
00000200: 1e27 723e 2419 c63c 7782 7bbe ddd2 413d
00000210: 3c76 1a3d b984 7bbb ce50 2c3c 2d4b af3d
00000220: df2d 00be c1f3 1dbe 95e2 343e 2e22 e73e
00000230: b604 cc3d cc3b 7d3d 9702 02bd ea4c 303d
00000240: a854 8c3e 28fa cf3d 1c65 6b3d 8a93 e83e
00000250: 7640 ba3e 0145 023f 53f2 7a3e f8f9 db3e
00000260: 2549 f73e 3a38 da3e 9f17 8d3e b0b1 a23e
00000270: e10a bc3e f473 023f 0319 533e a4e9 873e
00000280: 1d4e 283f 4d38 0f3f 6d8b 1d3f 5802 e53e
00000290: 44c3 d13e 2748 0c3f e9e6 cb3e c9ad de3e
000002a0: 5962 d73e bd91 113f 0a92 243f 3e79 ca3e
000002b0: 1d19 193f 96bc 293f 32d9 363f 0ec1 053f
000002c0: 0741 e13e 34bf 1c3f 7717 2c3f ca4a 193f
000002d0: 4591 2e3f 6292 1c3f b814 043f df3b 0d3f
000002e0: 10b3 053f 2a65 003f 1814 243f bcf7 57be
000002f0: 831c 08be 361f 01be c61e b83d 4fbe 43bd
00000300: f8ba 6c3d cda7 cdbc 00b4 e13d a749 5bbe
00000310: 379d 8c3e efbd d93d dcfe 013e c854 0f3f
00000320: 8c80 b13d a12d 00be 5eb8 3dbd 3992 16be
00000330: 7ab7 dfbd 86cd 10be a248 71bd d30a d23c
00000340: 72b3 b7bd e292 ebbd 2c21 3b3d 67b5 02be
00000350: 091a 123e 95ff 19be 7f0a 00be acc3 90bd
00000360: b06f 4a3d bebc 563c 89dc 16be 6ef5 db3d
00000370: c252 603d ca9e bdbd 5d16 d8bd 60b6 f53d
00000380: a1ad e93c 0cc4 113e e2a7 06be 44a7 b13d
00000390: dafc c9bd 3c15 ae3d 3c6e 363d 222b febd
000003a0: 4ea1 0d3c a00f 20be 8082 093d a00a 7ebd
000003b0: 34e3 583d 77f5 b0bd 82c2 97bd d9b8 03be
000003c0: 435d 263f ab2a 2b3f 562f 043f 8b92 643e
000003d0: 7f0b 163f 8ce6 9a3e bc34 a13e 8c4b 0b3f
000003e0: 9046 123f 4f46 ef3e 77de 4d3f b3e9 023f
000003f0: 690f 0f3f 1e81 1f3f 3f0c 473f 55a0 1d3f

fc1.bias f4 [16]
0.35959995 0.43055505 -0.051079087 0.10563233 0.5588853 0.1281488 0.51204616 0.124985956
0.44767603 0.18646468 0.45308307 0.47101858 0.2933246 0.42028326 0.41180438 0.23440936
00000000: 7c1d b83e b671 dc3e 4e38 51bd c355 d83d
00000010: 1b13 0f3f 7039 033e 7515 033f a3f8 ff3d
00000020: cb35 e53e 99f0 3e3e 81fa e73e 5929 f13e
00000030: a42e 963e 5e2f d73e 06d8 d23e 0209 703e

fc2.weight f4 [12, 16]
0.5625691 0.62390196 -0.17665854 0.33889267 0.34469116 0.15621103 0.52551216 0.0037824411
0.3911988 0.2705487 0.30606955 0.7870627 0.50002366 0.41763452 0.038634293 0.03624392
0.06778186 0.8436857 0.024617106 -0.34668714 0.7474577 0.18553655 0.8082707 -0.09708842
0.30411956 0.034791093 0.57081616 -0.1426669 0.37162283 0.35839203 0.16464058 0.07498356
-0.014708951 0.2277935 -0.16717398 -0.27791658 -0.19023758 0.07794593 0.00849097 -0.16885169
0.16826934 0.26234573 0.18906061 0.15217312 0.21551104 0.2038646 0.23290351 0.121844985
0.19102527 -0.0324876 0.06841922 -0.17192823 -0.24592814 -0.21726632 -0.22997606 -0.13871261
-0.21790022 -0.19060093 -0.07584422 0.20894098 -0.08851342 -0.18900372 0.21972674 0.23031148
0.07782903 -0.18031493 -0.085604995 -0.034876674 -0.20879453 0.18362823 0.010677576 0.043741703
-0.21591905 0.15435922 -0.06478134 -0.038561314 -0.21782827 0.06032476 -0.23640418 -0.110222876
0.1984525 0.4277214 0.015556186 -0.23152144 0.48277354 0.22468345 0.49977294 -0.024444554
0.21279521 0.08961858 0.19915491 -0.18814188 0.23274119 0.14206639 0.37319443 0.36746752
-0.024462393 0.047083676 -0.16821459 0.09091222 -0.124408916 -0.16495934 -0.051468015 -0.06581395
-0.054643337 -0.27041742 -0.09734628 -0.15174317 0.047952402 -0.016851831 0.08760303 -0.016665235
0.10255535 0.109954536 0.23449352 -0.008546032 0.11906747 0.06466082 0.0034962734 -0.22547862
-0.07986146 -0.1230117 0.10868993 0.06366964 -0.044626396 -0.113268204 -0.07016063 -0.28982484
0.50376844 0.7113088 0.23860925 0.5642515 0.30327997 0.0022111016 0.21762244 -0.025636664
0.16899373 0.26144424 0.15739846 0.51782066 0.10638673 0.34647653 0.21594137 0.52898365
0.3609935 0.39632422 0.14906365 -0.049694315 0.6492195 0.12377258 0.14383504 0.0001919191
0.3878254 0.3852291 0.45311174 0.43189383 0.4584063 0.43672246 0.34460843 0.017202552
0.35564896 0.18688141 0.06891441 -0.085938305 0.15958628 -0.16947316 -0.24279274 0.018168936
0.50713104 0.5001969 0.15952258 0.26071975 0.16675904 0.48453385 0.45896515 0.080919795
-0.144808 0.71789175 0.01685962 -0.40731457 0.8989322 -0.07522173 0.8190149 -0.097226754
0.12236658 0.336945 0.37940243 -0.016662292 0.026999563 0.16942142 0.19965367 0.42823273
00000000: 8704 103f 0ab8 1f3f fae5 34be 5783 ad3e
00000010: 5c7b b03e c9f5 1f3e f787 063f d5e2 773b
00000020: 364b c83e 5c85 8a3e 26b5 9c3e f17c 493f
00000030: 8d01 003f 31d4 d53e fe3e 1e3d 8174 143d
00000040: 37d1 8a3d c9fb 573f d0a9 c93c fa80 b1be
00000050: 6359 3f3f 4bfd 3d3e d4ea 4e3f 4bd6 c6bd
00000060: 8fb5 9b3e 1b81 0e3d 0221 123f 4617 12be
00000070: 5945 be3e 297f b73e 8a97 283e fb90 993d
00000080: d0fd 70bc b342 693e a82f 2bbe 154b 8ebe
00000090: a4cd 42be 1ea2 9f3d b61d 0b3c 75e7 2cbe
000000a0: cc4e 2c3e 2e52 863e 1b99 413e 45d3 1b3e
000000b0: edae 5c3e e2c1 503e 427e 6e3e dd89 f93d
000000c0: 219c 433e b811 05bd 601f 8c3d f40d 30be
000000d0: 96d4 7bbe 107b 5ebe d87e 6bbe ae0a 0ebe
000000e0: 3c21 5fbe e42c 43be 3754 9bbd a0f4 553e
000000f0: 8646 b5bd 318a 41be 0c00 613e c6d6 6b3e
00000100: d464 9f3d 7aa4 38be ac51 afbd d8da 0ebd
00000110: 3cce 55be 0a09 3c3e 00f1 2e3c 802a 333d
00000120: e219 5dbe 5810 1e3e 14ac 84bd 78f2 1dbd
00000130: 600e 5fbe 1817 773d f013 72be 88bc e1bd
00000140: 2237 4b3e 4dfe da3e 60df 7e3c f513 6dbe
00000150: 182e f73e 6b13 663e 3de2 ff3e f23f c8bc
00000160: fde6 593e f289 b73d 44ef 4b3e 44a8 40be
00000170: b553 6e3e da79 113e 5713 bf3e b424 bc3e
00000180: 5b65 c8bc d0da 403d 7240 2cbe 3030 ba3d
00000190: 1aca febd 1aeb 28be 20d0 52bd 77c9 86bd
000001a0: b1d1 5fbd 2774 8abe 7d5d c7bd 9062 1bbe
000001b0: bd69 443d da0c 8abc 3869 b33d 8885 88bc
000001c0: 8a08 d23d d82f e13d 121f 703e a804 0cbc
000001d0: a5d9 f33d e46c 843d bc21 653b dee3 66be
000001e0: 688e a3bd 8fed fbbd d398 de3d 3a65 823d
000001f0: 2bca 36bd 29f9 e7bd 60b0 8fbd ec63 94be
00000200: f8f6 003f 5518 363f fc55 743e c972 103f
00000210: 8347 9b3e 21e8 103b 6bd8 5e3e fb03 d2bc
00000220: b10c 2d3e 05dc 853e 102d 213e e58f 043f
00000230: 49e1 d93d 5f65 b13e bc1f 5d3e 796b 073f
00000240: 24d4 b83e 02eb ca3e 24a4 183e 448c 4bbd
00000250: 4033 263f 7a7c fd3d 7e49 133e e43d 4939
00000260: 0d91 c63e c03c c53e 43fe e73e 3021 dd3e
00000270: 3bb4 ea3e 169a df3e 8470 b03e 5eec 8c3c
00000280: 9f17 b63e d75d 3f3e 0023 8d3d 6c00 b0bd
00000290: 966a 233e 5f8a 2dbe a99e 78be 05d7 943c
000002a0: 57d3 013f e70c 003f e359 233e 0f7d 853e
000002b0: e2c2 2a3e d214 f83e 7bfd ea3e 47b9 a53d
000002c0: 8c48 14be c1c7 373f 301d 8a3c 898b d0be
000002d0: 6c20 663f da0d 9abd f6aa 513f d21e c7bd
000002e0: 549b fa3d 0e84 ac3e 0941 c23e 5c7f 88bc
000002f0: 302e dd3c cf7c 2d3e 0372 4c3e 5241 db3e

fc2.bias f4 [12]
0.6352023 0.49266088 -0.09008623 0.17993844 0.07085517 0.07387222 0.016620746 -0.009038853
0.60421956 0.3691969 0.37415653 0.24692343
00000000: 9e9c 223f 0c3e fc3e 217f b8bd c841 383e
00000010: 841c 913d 524a 973d 3b28 883c b317 14bc
00000020: 22ae 1a3f 6007 bd3e 7291 bf3e 7fd9 7c3e

fc3.weight f4 [28, 12]
0.24141802 -0.0077654636 0.19853963 0.025580525 0.009132445 0.2263755 -0.18589741 0.09412963
0.36670697 0.33212525 0.29376835 0.4204066 0.6162962 -0.10896039 0.15887274 -0.11865091
0.27229565 -0.11986441 0.04529515 -0.043969337 0.20370673 0.045952853 0.18007106 0.29137772
-0.10839684 -0.09354575 0.012735066 0.277066 0.15220729 -0.087595604 0.17230994 -0.0005898235
0.18979563 -0.21831813 -0.09177847 -0.051928274 -0.021398868 -0.21752584 -0.22557616 0.14776543
0.23423249 0.18878573 0.14331396 0.07667204 -0.114080705 0.24280415 0.04583881 0.19814494
0.17977378 0.004033701 0.03717864 0.12332541 0.08002439 0.03141776 -0.28152436 -0.0054837586
0.12867752 -0.33275533 -0.29649854 0.019959148 0.0030826777 0.03477323 -0.1826622 -0.21921463
-0.124059886 0.03563323 0.24062406 -0.024930678 0.31834972 -0.11041113 -0.13560656 0.15129699
0.022720695 0.13523875 -0.15186507 -0.0491475 -0.10659768 -0.3941887 -0.18402831 0.09488401
0.010708213 -0.09572856 -0.03609962 -0.072100215 -0.0059819706 -0.037950788 -0.29365683 0.12793094
-0.018742472 0.24797244 0.10298652 0.12685713 -0.12421459 0.07725313 -0.13326313 -0.3332297
0.27085102 -0.077958345 -0.013979873 -0.19626917 -0.06740096 0.069117725 0.03259337 -0.23961344
0.27978432 -0.13324904 -0.35663703 -0.10688622 0.52933764 0.079045355 0.19462249 -0.09369022
0.029339373 0.2289078 0.20844048 -0.1022878 0.25194606 0.4053904 0.30907178 0.29648834
0.44512078 0.14500605 -0.016123489 -0.24264005 -0.07267943 0.28049207 0.24518502 0.22763288
0.53741825 0.52609324 0.29442677 0.19417822 0.16210417 0.475871 0.44394493 0.11449075
-0.27223092 0.4016188 -0.055594906 -0.24189717 0.643588 0.52831376 0.17242219 0.62132496
0.5993009 0.5213997 0.09946334 0.08990723 0.13146904 0.58070314 -0.08932415 0.15476519
0.3582627 0.40964955 0.27970695 0.16646813 0.42845368 0.56477225 0.47125715 -0.06757571
0.06445101 0.013684024 0.040388018 -0.12274927 0.5170336 0.5146052 0.4303485 0.3406746
0.38207024 0.07501544 0.23287782 -0.112762615 0.20174298 0.3131016 -0.13790438 0.23677963
0.50700855 0.48100737 0.4228189 0.21175975 0.6087784 0.6672522 0.18468328 0.08133954
0.065051556 0.39770025 -0.2471793 -0.17320019 0.56948864 0.2908553 0.17140673 0.392618
0.49258417 0.53898466 0.46999347 -0.1135429 -0.24671851 0.3733426 -0.27928525 -0.19554548
0.41986576 0.33818713 0.52612495 0.39415696 0.23976171 0.69198495 0.09888165 0.011807308
-0.21094717 0.21230136 0.06442912 0.23529129 0.2720445 0.53775966 0.51205146 0.63370293
0.07610278 -0.2602919 0.056843944 -0.11207768 0.26633966 0.06438383 -0.19275206 -0.24583331
0.19752555 -0.13463429 -0.30348682 -0.1384774 -0.15548259 0.24968056 -0.19491512 -0.012461513
0.12176195 -0.16764753 -0.18717355 0.11335864 -0.37229836 -0.029698856 -0.047251802 0.35150108
0.0013115039 0.03957364 -0.17327619 0.13880694 -0.00044694543 -0.19426362 0.1044738 0.0731752
0.25801212 0.0431733 0.05856639 -0.07857278 0.23259403 -0.011840918 -0.0068199006 0.097017884
00000000: 4936 773e 6e75 febb f94d 4b3e 408e d13c
00000010: 40a0 153c fbce 673e e45b 3ebe 09c7 c03d
00000020: 04c1 bb3e 520c aa3e ce68 963e 893f d73e
00000030: 96c5 1d3f a026 dfbd 89af 223e 40ff f2bd
00000040: 566a 8b3e 797b f5bd 6887 393d 3119 34bd
00000050: 7f98 503e 0f39 3c3d 8c64 383e 762f 953e
00000060: 2aff ddbd ea94 bfbd bda6 503c 98db 8d3e
00000070: 3adc 1b3e 5365 b3bd 0472 303e 639e 1aba
00000080: c959 423e ca8e 5fbe 5af6 bbbd beb2 54bd
00000090: ae4c afbc 18bf 5ebe 70fd 66be d24f 173e
000000a0: a4da 6f3e 0c51 413e e5c0 123e 3b06 9d3d
000000b0: 25a3 e9bd a7a1 783e 7ac1 3b3d 82e6 4a3e
000000c0: 9e16 383e 232d 843b a148 183d 0892 fc3d
000000d0: d4e3 a33d e9af 003d f623 90be 1ab1 b3bb
000000e0: 0ac4 033e e85e aabe a8ce 97be 5e81 a33c
000000f0: c006 4a3b 606e 0e3d cd0b 3bbe cd79 60be
00000100: 1c13 febd 26f4 113d 2766 763e 6c3b ccbc
00000110: bcfe a23e 3b1f e2bd 72dc 0abe 99ed 1a3e
00000120: c020 ba3c 077c 0a3e 8482 1bbe e44e 49bd
00000130: e24f dabd 1ad3 c9be eb71 3cbe 8c52 c23d
00000140: 8071 2f3c 560d c4bd 32dd 13bd 47a9 93bd
00000150: 6804 c4bb 4972 1bbd 305a 96be 5400 033e
00000160: d089 99bc 7dec 7d3e 99ea d23d d6e6 013e
00000170: 3864 febd e436 9e3d 2176 08be 159d aabe
00000180: fcac 8a3e a0a8 9fbd d60b 65bc c9fa 48be
00000190: 8409 8abd 988d 8d3d a080 053d 3a5d 75be
000001a0: e43f 8f3e 7072 08be 2199 b6be 2ae7 dabd
000001b0: ac82 073f 88e2 a13d 1e4b 473e a8e0 bfbd
000001c0: 2059 f03c ce66 6a3e 6c71 553e 447c d1bd
000001d0: 13ff 803e 558f cf3e a83e 9e3e 52cd 973e
000001e0: dfe6 e33e 777c 143e 6815 84bc a276 78be
000001f0: f4d8 94bd a89c 8f3e c811 7b3e 9818 693e
00000200: 3e94 093f 0cae 063f 1bbf 963e a8d6 463e
00000210: a3fe 253e 5da5 f33e c04c e33e 207a ea3d
00000220: da61 8bbe fba0 cd3e 7cb7 63bd e4b3 77be
00000230: 2fc2 243f 923f 073f 718f 303e 270f 1f3f
00000240: c96b 193f 737a 053f 70b3 cb3d 4821 b83d
00000250: d29f 063e f6a8 143f 94ef b6bd c47a 1e3e
00000260: 356e b73e 96bd d13e c035 8f3e 9f76 2a3e
00000270: 485e db3e ea94 103f 9e48 f13e 2265 8abd
00000280: e4fe 833d f532 603c e86d 253d f863 fbbd
00000290: 505c 043f 2bbd 033f a356 dc3e e76c ae3e
000002a0: b69e c33e b2a1 993d 8677 6e3e 16f0 e6bd
000002b0: b695 4e3e da4e a03e ce36 0dbe 5c76 723e
000002c0: 50cb 013f 9946 f63e b87b d83e 8cd7 583e
000002d0: e7d8 1b3f 0ad1 2a3f 9d1d 3d3e 5895 a63d
000002e0: c039 853d 5e9f cb3e 921c 7dbe 645b 31be
000002f0: 02ca 113f fcea 943e 3f85 2f3e 3a05 c93e
00000300: fe33 fc3e e6fa 093f fca2 f03e 2e89 e8bd
00000310: c7a3 7cbe c326 bf3e 7afe 8ebe 133d 48be
00000320: a5f8 d63e dd26 ad3e 20b0 063f f1ce c93e
00000330: 1884 753e ed25 313f 7682 ca3d 7073 413c
00000340: 8902 58be 8765 593e 6af3 833d 33f0 703e
00000350: 6b49 8b3e 9eaa 093f ce15 033f 5b3a 223f
00000360: c6db 9b3d fb44 85be 32d5 683d fc88 e5bd
00000370: ac5d 883e abdb 833d cc60 45be babb 7bbe
00000380: 2344 4a3e 92dd 09be a062 9bbe 05cd 0dbe
00000390: d436 1fbe 43ac 7f3e d497 47be 602b 4cbc
000003a0: 545e f93d cbab 2bbe 6caa 3fbe 9328 e83d
000003b0: e49d bebe 044b f3bc 1b8b 41bd f3f7 b33e
000003c0: c5e6 ab3a f817 223d 506f 31be 6823 0e3e
000003d0: 0054 eab9 0bed 46be 5cf6 d53d e1dc 953d
000003e0: 2a1a 843e 7cd6 303d 50e3 6f3d c4ea a0bd
000003f0: 212d 6e3e 6900 42bc 7979 dfbb 50b1 c63d

fc3.bias f4 [28]
0.5540758 0.28961542 -0.047683425 -0.04161038 -0.09451073 -0.25081247 -0.32554272 0.15730229
-0.17272179 0.27248505 0.10751054 0.47905248 0.04774152 0.40913522 0.45410052 -0.04688783
0.42448655 0.52408767 0.05251265 -0.1362052 -0.056783874 0.105061665 0.09833821 -0.17154479
0.22209187 -0.31580994 -0.06251009 0.40435183
00000000: e9d7 0d3f 7948 943e b24f 43bd a56f 2abd
00000010: d78e c1bd 7e6a 80be 89ad a6be da13 213e
00000020: fbdd 30be 2983 8b3e 7c2e dc3d 5e46 f53e
00000030: 9d8c 433d 2c7a d13e dd7f e83e 740d 40bd
00000040: 4d56 d93e 9c2a 063f 8117 573d 6079 0bbe
00000050: 3596 68bd 922a d73d 8b65 c93d 70a9 2fbe
00000060: 0d6c 633e d7b1 a1be 4a05 80bd 3407 cf3e
