dqn_conservative.pth (torch, 7586 bytes, 6 tensors)

fc1.weight f4 [16, 40]
0	0x3e7c1dab	0.24620692
1	0x3e2ebb09	0.17063536
2	0x3e510285	0.20411117
3	0x3e148f33	0.14507751
4	0x3ea35cce	0.31906742
5	0x3e4c9a5a	0.19980755
6	0x3e1cd833	0.15316848
7	0x3d96cd67	0.07363396
8	0x3e958a78	0.29207206
9	0x3e03123f	0.12799929
10	0x3ddffefd	0.10937307
11	0x3eb857db	0.36004528
12	0x3e83c9e2	0.25739962
13	0x3ec4423c	0.38331783
14	0x3e76b4c6	0.24092397
15	0x3dd55fa7	0.10418635
16	0x3e91b5d9	0.2845905
17	0x3e1229c8	0.14273751
18	0x3e41b673	0.18917255
19	0x3e55d2d1	0.20881201
20	0x3ec0ac5c	0.376315
21	0x3e2b479f	0.1672654
22	0x3e7bfa78	0.24607265
23	0x3e9404ff	0.28910062
24	0x3e5f80cc	0.21826476
25	0x3ec2eee3	0.3807288
26	0x3e71fb05	0.23630913
27	0x3e777eb0	0.24169421
28	0x3e19bae2	0.15012696
29	0x3e8c0bad	0.27352658
30	0x3e4d9b61	0.20078804
31	0x3e6efcf7	0.23338686
32	0x3e112db5	0.14177592
33	0x3e3d5bcf	0.18492053
34	0x3ea2f92a	0.31830722
35	0x3e2026cd	0.15639801
36	0x3e7b99f2	0.24570444
37	0x3e75e934	0.24014741
38	0xbe16bc93	-0.14720373
39	0x3e7a2a2f	0.24430154
40	0x3e68f4e1	0.22749664
41	0x3de71666	0.11283569
42	0x3d48c76a	0.0490183
43	0x3e21c389	0.15797247
44	0x3e0df19b	0.13861696
45	0x3e9c96b1	0.30583718
46	0x3ea9a9da	0.331374
47	0x3e9383c1	0.28811458
48	0x3eab532f	0.33461902
49	0x3d91b21f	0.07114052
50	0x3dbe5ecc	0.09295425
51	0x3e2809d1	0.16409995
52	0x3e91f390	0.28506136
53	0x3e349723	0.17635779
54	0x3e9326b3	0.28740463
55	0x3e7e0f01	0.24810411
56	0x3e8b7946	0.27240962
57	0x3df19745	0.117964305
58	0x3d68391f	0.0566951
59	0x3e881944	0.26581776
60	0x3ea7dcda	0.32785684
61	0x3eaa8461	0.33304122
62	0x3e483739	0.19552316
63	0x3e65df38	0.22448432
64	0x3eab3bd3	0.3344408
65	0x3d43b241	0.047777418
66	0x3dbe4d52	0.092920914
67	0x3e8fd989	0.28095654
68	0x3e30a175	0.17249091
69	0x3d29157c	0.041280255
70	0x3df8ddea	0.12151702
71	0x3e5f2635	0.21791919
72	0x3e828c11	0.25497487
73	0x3d98896c	0.07448086
74	0x3e8d439d	0.27590647
75	0x3dc5c44b	0.096565805
76	0x3d2da9a9	0.04239813
77	0x3e9d2c7f	0.3069801
78	0xbcc649df	-0.024205146
79	0x3e85f1b2	0.2616096
80	0x3e96bcdc	0.29440963
81	0x3ead6bc4	0.3387128
82	0x3df6891d	0.12037871
83	0x3eb1f6dd	0.34758654
84	0x3de73ff0	0.11291492
85	0x3d84926a	0.06473239
86	0x3e92e358	0.28689075
87	0x3e94ed75	0.29087415
88	0x3e87c023	0.26513776
89	0x3e521ca9	0.20518745
90	0x3e52c20d	0.20581837
91	0x3e9d2c8e	0.30698055
92	0x3e878b23	0.2647334
93	0x3e3662eb	0.17811172
94	0x3dbc27e8	0.09187299
95	0x3eba4cc8	0.36386704
96	0x3e665e60	0.22496939
97	0x3e823c7a	0.25436765
98	0x3e1c1839	0.15243615
99	0x3e8a3a2f	0.26997516
100	0x3ea13945	0.31489006
101	0x3d8cafa6	0.0686944
102	0x3eb24a34	0.34822237
103	0x3ea14632	0.31498867
104	0x3dd45f40	0.1036973
105	0x3e0594f2	0.130451
106	0x3ea56031	0.3229995
107	0x3e5dfc28	0.21678221
108	0x3e8bbfaa	0.27294666
109	0x3dd06abb	0.10176607
110	0x3e1b8475	0.15187247
111	0x3e115947	0.14194213
112	0x3d17aeec	0.037032053
113	0x3e0aeded	0.13567324
114	0x3baba7d2	0.0052385116
115	0x3ea0e9d8	0.3142841
116	0x3e82fc5a	0.25583154
117	0x3e11ccfe	0.14238355
118	0xbd812a4c	-0.063068956
119	0x3e9ac4f2	0.30228382
120	0x3e1a105f	0.15045308
121	0x3e846bea	0.25863582
122	0x3e3830a2	0.17987302
123	0x3dd7f8db	0.10545512
124	0x3ecaca1f	0.3960733
125	0x3eaadebf	0.33373067
126	0x3ebdbc3f	0.37057683
127	0x3dcd004d	0.10009823
128	0x3dfb8166	0.1228054
129	0x3e9480cb	0.2900451
130	0x3df04924	0.117327005
131	0x3de0f316	0.10983865
132	0x3e37fac4	0.17966753
133	0x3e1412b9	0.14460267
134	0x3ea1bcf5	0.31589475
135	0x3eb896eb	0.3605264
136	0x3e7f1d3c	0.24913496
137	0x3e029938	0.12753761
138	0x3de54e36	0.11196558
139	0x3e992dfd	0.299179
140	0x3e5761ac	0.21033353
141	0x3ec85a8a	0.39131576
142	0x3e191c92	0.14952305
143	0x3e41b923	0.1891828
144	0x3e804cb0	0.25058508
145	0x3de74e73	0.1129426
146	0x3e81d0a1	0.25354484
147	0x3e65d0cf	0.22442935
148	0x3de172fe	0.11008261
149	0x3e544d63	0.20732646
150	0x3db13d75	0.086543
151	0x3daf1704	0.08549312
152	0x3dda22f5	0.10651199
153	0x3e695a68	0.22788393
154	0x3e35edd9	0.17766513
155	0x3dda36dc	0.10654995
156	0x3e7a6f7d	0.24456592
157	0x3e2eefa2	0.170836
158	0xbcc92dfc	-0.02455806
159	0x3eb3a034	0.35083163
160	0x3da00069	0.07812578
161	0x3e617ea5	0.22020967
162	0x3e910b9b	0.28329167
163	0x3e0965eb	0.13417785
164	0x3e0ac1f0	0.13550544
165	0x3e17da2a	0.14829317
166	0x3e668e98	0.22515333
167	0x3d2175ff	0.03941917
168	0x3e801b05	0.25020614
169	0x3d708cc7	0.058728006
170	0x3de91307	0.11380582
171	0x3d55730b	0.052111667
172	0x3dc15c1a	0.09441395
173	0x3e91ce01	0.2847748
174	0x3e22afb1	0.15887333
175	0x3e1b5cee	0.15172169
176	0x3db95daf	0.09051072
177	0x3eb11dd0	0.34593058
178	0x3d89d760	0.06730533
179	0x3eb7339c	0.35781562
180	0x3e9d9a9a	0.30782014
181	0x3dc4c768	0.09608346
182	0x3e2b6b36	0.16740116
183	0x3de46ebe	0.11153935
184	0x3dfd136f	0.12357222
185	0x3eae0432	0.33987576
186	0x3daa415e	0.08313249
187	0xbbab41ef	-0.0052263658
188	0x3bf4ed8a	0.007474606
189	0x3e265012	0.16241482
190	0x3e20eb24	0.15714699
191	0x3e862322	0.2619868
192	0x3e5b3a96	0.21409068
193	0x3e730ad3	0.23734598
194	0x3e9ef9e9	0.3105004
195	0x3e761917	0.24033009
196	0x3e85b579	0.26115015
197	0x3e888bac	0.2666906
198	0xbe874304	-0.26418316
199	0x3ead92ab	0.3390096
200	0x3e1f9483	0.15583996
201	0x3eaa56bb	0.33269295
202	0x3eab626a	0.3347352
203	0x3dc68118	0.096925914
204	0x3e7571b7	0.2396916
205	0x3e66b50a	0.22529998
206	0x3eaa11ba	0.3321665
207	0xbc1fd81c	-0.009756114
208	0x3e0ff782	0.1405926
209	0x3e8993e0	0.26870632
210	0x3e87e84c	0.26544416
211	0x3e929775	0.28631178
212	0x3e284254	0.16431552
213	0x3e20980a	0.15682998
214	0x3ea9a974	0.33137095
215	0x3dd1b249	0.10239083
216	0x3e5af6d7	0.21383224
217	0x3e27e178	0.16394603
218	0x3eb4b3ba	0.3529337
219	0x3eac50c3	0.33655366
220	0x3dd337e6	0.10313396
221	0x3ebaafde	0.364623
222	0x3e843a60	0.25825787
223	0x3dd0297c	0.101641625
224	0x3ddaa1bf	0.10675382
225	0x3d99a2a5	0.07501725
226	0x3e5043d3	0.20338373
227	0x3e4bb866	0.19894561
228	0x3e702280	0.2345066
229	0x3da1b4b7	0.07895797
230	0x3e2b87a5	0.16750963
231	0x3debd1d5	0.11514632
232	0x3db64280	0.088994026
233	0x3d01bcce	0.0316742
234	0x3e330194	0.17481071
235	0x3e784c7c	0.24247926
236	0x3d657d54	0.056027725
237	0x3deeb71a	0.116560176
238	0xbe00ff56	-0.12597403
239	0x3e52bd5b	0.20580046
240	0xbd38d708	-0.045126945
241	0xbe0f285d	-0.13980241
242	0xbe1cde55	-0.15319188
243	0xbcf29ce8	-0.029615834
244	0x3d8abc74	0.06774226
245	0xbe0e81da	-0.13916722
246	0x3cc631b8	0.02419363
247	0x3d89b984	0.067248374
248	0xbcfac425	-0.030611107
249	0x3dc55a9a	0.096364215
250	0xbe060a0e	-0.13089773
251	0xbdbd9a33	-0.09257927
252	0x3de33f54	0.11096063
253	0x3dc3604e	0.09539853
254	0x3d839f55	0.064268745
255	0x3e04ad7c	0.12956804

fc1.bias f4 [16]
0	0x3ec2489b	0.3794602
1	0x3e81a01c	0.25317466
2	0x3de2216e	0.110415325
3	0x3ec024d1	0.3752809
4	0x3e4cbdad	0.1999423
5	0x3eb4b8a6	0.35297126
6	0xbde9d8d8	-0.11418313
7	0x3e8fef38	0.28112197
8	0x3d756d24	0.059918538
9	0xbcc2e106	-0.02378894
10	0xbc87d7ed	-0.016582454
11	0x3e15472d	0.14577933
12	0x3eb531a8	0.35389447
13	0xbd3e9d58	-0.046536773
14	0xbc9be0f0	-0.019028157
15	0x3e67ca13	0.22635679

fc2.weight f4 [12, 16]
0	0x3e71b088	0.23602498
1	0x3e13933a	0.14411631
2	0x3eb24614	0.3481909
3	0x3eb5477f	0.3540611
4	0x3edcc5c3	0.4311963
5	0x3e5d00bc	0.21582311
6	0x3e23add2	0.15984276
7	0x3ea16726	0.3152401
8	0xbd09f350	-0.033679307
9	0xbd736d71	-0.059430543
10	0x3e586076	0.21130547
11	0x3ea38ca2	0.31943232
12	0x3e3205a9	0.17384972
13	0xbc6c9e60	-0.014442056
14	0x3c33df40	0.01097852
15	0x3e52b3a1	0.20576335
16	0x3e870f2c	0.26378763
17	0x3ebd2ad9	0.36946753
18	0x3eca79b7	0.39545986
19	0x3e5225b4	0.20522195
20	0x3e3bf99f	0.18356942
21	0xbd3042f9	-0.04303262
22	0xbe187d9d	-0.14891668
23	0x3e303006	0.1720582
24	0x3ec841aa	0.39112598
25	0x3cc240d2	0.02371255
26	0x3dc289f7	0.09498971
27	0x3ed1766f	0.4091067
28	0x3ea4cc7c	0.3218726
29	0x3e5e0590	0.2168181
30	0x3e2d4e10	0.1692431
31	0x3dedad84	0.11605361
32	0x3c80972f	0.01569709
33	0xbe0b54f7	-0.1360663
34	0x3e2c6c95	0.16838296
35	0xbd2354bd	-0.039875735
36	0xbe338810	-0.17532372
37	0x3d2cf97d	0.042230118
38	0xbe5ec572	-0.21755007
39	0xbe110665	-0.14162596
40	0x3d335d8d	0.04379039
41	0xbe543a8f	-0.20725463
42	0xbd9aeac8	-0.07564312
43	0x3e168b5b	0.14701597
44	0x3e48e841	0.19619848
45	0xbe2f458e	-0.17116377
46	0xbe618324	-0.22022682
47	0xbde3d16c	-0.111239284
48	0x3e091a2a	0.13388887
49	0x3eaa02df	0.33205315
50	0x3e845f29	0.2585385
51	0x3e616b3d	0.22013564
52	0xbd3aaa1f	-0.045572396
53	0x3e849940	0.2589817
54	0xbda08e82	-0.07839681
55	0x3e4b2932	0.19839934
56	0x3ece55d3	0.40299854
57	0xbe50c680	-0.20388222
58	0x3cb09025	0.021553108
59	0x3c1cdfcd	0.009574843
60	0x3eba5e7c	0.3640021
61	0xbd02bdd8	-0.03191933
62	0xbd21f458	-0.039539665
63	0x3ebfd15a	0.3746441
64	0xbddf6fe6	-0.10910015
65	0xbdef9dc4	-0.11700013
66	0xbe1a8319	-0.15089072
67	0x3d5621ad	0.05227821
68	0xbe04803a	-0.1293954
69	0xbe318de1	-0.17339279
70	0x3de556c4	0.1119819
71	0x3e4f5316	0.20246539
72	0xbe59c7b6	-0.2126759
73	0xbe70ca22	-0.23514608
74	0xbdf8628f	-0.121281736
75	0x3e39f6ec	0.181606
76	0x3d0c1159	0.03419623
77	0xbe4a8a28	-0.19779265
78	0x3d306ae0	0.043070674
79	0x3e0d616a	0.13806692
80	0xbe1113a6	-0.14167652
81	0xbc0540c0	-0.008133113
82	0x3d23a578	0.039952725
83	0xbe24a9ee	-0.16080448
84	0xbd9444f0	-0.07239711
85	0xbde82508	-0.11335188
86	0x3e015164	0.12628704
87	0xbdffe0d0	-0.124940515
88	0x3d3d8ea8	0.046278626
89	0xbe3777f2	-0.1791685
90	0x3d812a84	0.06306937
91	0xbd59db50	-0.05318767
92	0xbdd484b4	-0.103768736
93	0x3e3a1818	0.18173254
94	0x3e1d039c	0.15333408
95	0xbe674834	-0.22586137
96	0xbe653b16	-0.22385821
97	0x3cfa6e90	0.030570298
98	0xbd743480	-0.05962038
99	0xbc5252e0	-0.012837142
100	0x3c8ec400	0.017427444
101	0xbe6ab40c	-0.22920245
102	0xbda58330	-0.08081663
103	0xbb812b80	-0.003941953
104	0xbb986440	-0.0046506226
105	0x3e31ac78	0.17350948
106	0xbe4f5c0c	-0.20249957
107	0xbcd6e7e0	-0.026233613
108	0xbe119560	-0.14217138
109	0x3b24e600	0.0025161505
110	0xbe636822	-0.22207692
111	0x3db1a564	0.08674124
112	0x3e3601f6	0.17774186
113	0xbdfa272c	-0.12214503
114	0xbcbf5b10	-0.023358852
115	0xbe2d30ce	-0.16913149
116	0xbdb3b8a8	-0.08775455
117	0xbe1c7b36	-0.15281376
118	0x3bc01bc0	0.005862683
119	0x3c5efdc0	0.013610303
120	0xbdcde8e4	-0.10054186
121	0xbe5393ec	-0.20661896
122	0xbe1d9a0c	-0.15390795
123	0xbe2d382c	-0.16915959
124	0xbe58bb8a	-0.2116529
125	0xbcf3c6e0	-0.029757917
126	0xbe33d486	-0.1756154
127	0xbb8e0780	-0.00433439
128	0x3e3e97ea	0.18612638
129	0xbe77b370	-0.24189544
130	0xbe19b310	-0.15009713
131	0x3e6890a8	0.22711432
132	0xbc10c2a0	-0.008835465
133	0xbd035fa8	-0.032073647
134	0xbe474c7a	-0.19462767
135	0xbd1fd290	-0.039019167
136	0x3e604138	0.21899879
137	0xbe31e4ea	-0.1737248
138	0xbd32bfc0	-0.0436399
139	0xbe26cdc0	-0.16289425
140	0xbcaaead0	-0.02086392
141	0xbe75fc1c	-0.24021953
142	0x3d78b538	0.0607197
143	0xbe3773ec	-0.17915314
144	0x3e3746bd	0.17898078
145	0x3e98f456	0.29873914
146	0x3ec786da	0.3897007
147	0x3ea74f75	0.32677808
148	0x3ed36955	0.412913
149	0x3e8e4127	0.27784082
150	0x3e2f34b7	0.17109953
151	0x3eab02c6	0.33400553
152	0x3ecd3586	0.40079898
153	0xbd97aff0	-0.07406604
154	0xbde98f62	-0.11404301
155	0x3e4c4286	0.19947252
156	0x3ea25192	0.31702858
157	0xbe161e4a	-0.14659992
158	0x3b5ec900	0.0033994317
159	0x3ec9a051	0.39380124
160	0x3e05f88c	0.13083094
161	0x3e3b228a	0.18274894
162	0x3ed1babd	0.40962783
163	0x3dc66db4	0.09688893
164	0x3e0714ef	0.1319158
165	0x3e7ef59b	0.24898379
166	0x3cf94579	0.030428635
167	0x3e92a6d6	0.2864291
168	0x3ed64241	0.41847423
169	0xbe1807c9	-0.1484672
170	0xbe20cd67	-0.15703355
171	0x3ee3187a	0.44354612
172	0x3e3512b5	0.17682917
173	0xbbf9b3c0	-0.007620305
174	0x3d76d250	0.060259163
175	0x3ec9fdb3	0.3945137
176	0x3e977b92	0.29586464
177	0xbd41eda5	-0.047345776
178	0x3ec118ae	0.37714142
179	0x3e9ff80e	0.31243938
180	0xbc2df7f9	-0.010618203
181	0xbcbb9d97	-0.022902293
182	0xbc4a31a8	-0.012340941
183	0x3e1a105c	0.15045303
184	0xbdc45ed7	-0.09588402
185	0xbe16e467	-0.14735566
186	0x3e098ea0	0.13433313
187	0x3ec49b00	0.38399506
188	0x3e508b6d	0.20365687
189	0x3de25e48	0.11053139
190	0xbe65f414	-0.2245639
191	0x3edec67e	0.43510813

fc2.bias f4 [12]
0	0x3e2604fe	0.16212842
1	0x3e962b86	0.2933008
2	0xbc52d47e	-0.012868045
3	0x3eb7c384	0.35891354
4	0xbe77b3c2	-0.24189666
5	0x3e367a66	0.17820129
6	0xbe70a2ce	-0.23499605
7	0xbdc982e8	-0.098394215
8	0xbe1c6c04	-0.1527558
9	0x39c209ff	0.0003701001
10	0x3e487b9c	0.19578403
11	0x3e3f0ac8	0.18656456

fc3.weight f4 [28, 12]
0	0x3e1d4d01	0.15361406
1	0x3db731a4	0.08945015
2	0xbdd4c0d8	-0.103883445
3	0x3e87e54a	0.2654212
4	0xbe18fc60	-0.14940023
5	0x3e710b5c	0.2353949
6	0x3e6985d4	0.22804958
7	0x3cf97b70	0.030454367
8	0x3e92cf1e	0.28673643
9	0xbe3a28e6	-0.18179664
10	0xbd2bf6aa	-0.041983284
11	0xbe63fbaa	-0.22263971
12	0x3da0aced	0.07845483
13	0xbe93324a	-0.28749305
14	0x3e854578	0.26029563
15	0xbe89d889	-0.26923016
16	0x3df04de0	0.117336035
17	0xbe8cabb0	-0.27474737
18	0xbda9114c	-0.08255252
19	0x3e38ec5c	0.18058914
20	0xbe0eca36	-0.13944325
21	0x3e58ca90	0.21171021
22	0xbe806e62	-0.25084215
23	0xbd099438	-0.033588618
24	0xbe149c68	-0.14512789
25	0xbe06773a	-0.13131419
26	0x3d0bed50	0.034161866
27	0x3c5000c8	0.012695499
28	0x3e6f4911	0.23367716
29	0x3e8f7f20	0.28026676
30	0xbe7a4197	-0.24439083
31	0xbe5ac3f8	-0.21363819
32	0x3dba70c0	0.091035366
33	0x3e02564f	0.12728237
34	0xbe8dbebc	-0.2768458
35	0xbeb923c5	-0.36160102
36	0xbec0a477	-0.37625477
37	0xbedefa89	-0.43550518
38	0x3e8df928	0.27729154
39	0xbeeb5196	-0.45960683
40	0x3e6a64a5	0.22889955
41	0xbd944ae4	-0.07240847
42	0xbdfb8b92	-0.1228248
43	0x3e5f4070	0.21801925
44	0x3e1dcdc6	0.15410528
45	0xbeccc4b2	-0.39993817
46	0x3d5b342b	0.053516548
47	0xbc5dc208	-0.01353503
48	0xbecb8a2f	-0.39753863
49	0x3dcdda0f	0.10051357
50	0xbdeaf4da	-0.11472483
51	0x3c345755	0.01100715
52	0xbc945550	-0.018107086
53	0x3e79fdb8	0.24413192
54	0x3d034b10	0.032054007
55	0x3e5d2d30	0.21599269
56	0xbd6a2a9c	-0.05716954
57	0x3d7d22f4	0.061800912
58	0xbe15a9b8	-0.14615524
59	0xbedc4694	-0.43022597
60	0xbe686468	-0.22694552
61	0xbd2a6aa1	-0.041605595
62	0xbe1da721	-0.15395786
63	0xbed5fc59	-0.41794088
64	0xbc812d0d	-0.015768552
65	0x3e3e1174	0.18561345
66	0xbd09e300	-0.03366375
67	0x3e4b37a4	0.19845444
68	0x3e58e738	0.21181953
69	0xbeafe935	-0.3435761
70	0xbed1aaa2	-0.40950495
71	0xbe46829d	-0.19385763
72	0xbea346b0	-0.31889868
73	0xbeae7d5a	-0.3408001
74	0xbe1df26b	-0.15424506
75	0xbee8be09	-0.45457485
76	0x3c5e2cba	0.013560468
77	0x3dfbfb9c	0.1230385
78	0xbe828a63	-0.25496206
79	0xbd956e2e	-0.07296406
80	0xbe8d6a19	-0.2762001
81	0xbed6b00a	-0.41931182
82	0xbed800db	-0.42188153
83	0xbc324932	-0.010881709
84	0xbea944a5	-0.33060184
85	0xbeb763d6	-0.35818356
86	0xbbf99500	-0.007616639
87	0xbcef5bee	-0.02921864
88	0x3e5c2ead	0.2150218
89	0xbe87637f	-0.26443097
90	0xbc963a00	-0.018338203
91	0x3d92628c	0.071477026
92	0xbe5c79b0	-0.21530795
93	0x3d9387c8	0.072036326
94	0xbdb0a1a0	-0.086245775
95	0x3dc8ec54	0.09810701
96	0x3d4ed8e0	0.050499797
97	0xbda14b66	-0.07875709
98	0x3e4e8062	0.20166162
99	0xbed68fed	-0.41906682
100	0xbdda04b9	-0.10645432
101	0xbe8f3401	-0.27969363
102	0x3e1efc1a	0.15525857
103	0xbcead300	-0.028665066
104	0x3e7eb868	0.24875033
105	0x3df39c63	0.11895063
106	0xbd94b5ed	-0.07261262
107	0xbe5eaf46	-0.21746549
108	0xbd2b7f00	-0.041869164
109	0x3e973376	0.2953145
110	0x3decf3bc	0.11569926
111	0xbab1fa9b	-0.0013578715
112	0xbe2b8c97	-0.1675285
113	0xbe532e50	-0.20623136
114	0x3dc07cb4	0.09398785
115	0x3dc07758	0.09397763
116	0x3e8c10e8	0.27356648
117	0x3e050167	0.12988816
118	0xbcf87aa9	-0.030331926
119	0x3dd096d4	0.10185018
120	0x3d3af7df	0.045646545
121	0xbe4e0098	-0.20117414
122	0xbdb3fb7e	-0.08788203
123	0x3e882c5b	0.2659634
124	0xbd15adc4	-0.03654267
125	0xbe281050	-0.16412473
126	0xbe3c4b0a	-0.18388
127	0xbe14c776	-0.14529213
128	0x3d534d40	0.051587343
129	0x3e684bd0	0.2268517
130	0x3e502d7e	0.20329854
131	0xbe19db7e	-0.15025136
132	0x3e3d36c1	0.18477918
133	0x3d9fd330	0.07803953
134	0x3d8ecf8c	0.0697318
135	0x3e648e00	0.22319794
136	0xbd74b217	-0.059740152
137	0x3e58cc90	0.21171784
138	0x3e214b5c	0.15751404
139	0xbe56c01a	-0.20971718
140	0x3df1c850	0.11805785
141	0x3e978779	0.29595545
142	0x3e8dc913	0.2769247
143	0x3ea90ff7	0.33019993
144	0xbc33714b	-0.010952304
145	0x3e333a14	0.17502624
146	0xbd5b5008	-0.05354312
147	0x3de1665d	0.11005852
148	0xbdffd7e4	-0.1249235
149	0xbd68a3c4	-0.056796804
150	0xbd5c9fb8	-0.053863257
151	0xbe8a12d4	-0.2696749
152	0xbe893d02	-0.26804358
153	0x3e1a95aa	0.15096155
154	0x3e1507b1	0.14553715
155	0x3dc07e16	0.09399049
156	0x3d901923	0.070360444
157	0x3e8cde65	0.27513424
158	0x3e5ea6ec	0.21743363
159	0x3e878819	0.26471022
160	0xbe4f6ae7	-0.20255624
161	0xbbe2b680	-0.0069187284
162	0x3e8c5118	0.2740562
163	0xbe70e83b	-0.23526089
164	0xbe45e84e	-0.19326898
165	0x3e38224d	0.17981835
166	0xbba927fc	-0.005162237
167	0xbe5a7c00	-0.21336365
168	0x3ccd8967	0.025089933
169	0x3e60066f	0.21877454
170	0x3e6e5f84	0.23278624
171	0x3e732ceb	0.23747604
172	0x3e5ce837	0.21572958
173	0xbd87eaea	-0.06636603
174	0x3e7bca48	0.24588883
175	0x3d82ca9c	0.06386301
176	0x3e818566	0.25297087
177	0x3e8cb51d	0.27481928
178	0x3e7f90ec	0.24957627
179	0x3d2b269b	0.041784864
180	0x3d108a16	0.03528794
181	0xbd4b7f78	-0.04968211
182	0xbe702781	-0.2345257
183	0xbe288e8d	-0.16460629
184	0x3e3381b8	0.17529953
185	0x3d213bc0	0.039363623
186	0xbe8d6846	-0.27618617
187	0xbe7e440a	-0.24830642
188	0xbe3e9054	-0.18609744
189	0x3e06b2fd	0.13154216
190	0xbcc25a1f	-0.023724614
191	0xbd442652	-0.047888108
192	0xbddd58dd	-0.10807965
193	0x3e14c7c1	0.14529325
194	0x3da5def8	0.080991685
195	0x3c9ad9ff	0.018902777
196	0xbd3ff700	-0.046866417
197	0xbe8b6ef9	-0.27233103
198	0xbe8b7ea2	-0.2724505
199	0xbd98d3b0	-0.07462251
200	0xbd692704	-0.056921974
201	0x3e0452c3	0.12922196
202	0xbda7eafc	-0.081991166
203	0x3ebc0e87	0.36729833
204	0x3e250445	0.1611491
205	0x3e096b48	0.13419831
206	0x3b699b80	0.0035645664
207	0x3eb4f6e0	0.353446
208	0x3e8d5498	0.27603602
209	0x3e820a0c	0.2539829
210	0x3dd5e624	0.104442865
211	0xbe54da18	-0.20786321
212	0x3e5f35dc	0.2179789
213	0xbe269677	-0.16268335
214	0xbdf1e811	-0.11811841
215	0x3e0a0945	0.13480099
216	0xbe1f8027	-0.1557623
217	0xbe86fd4a	-0.2636512
218	0x3e896529	0.26834992
219	0xbec2f467	-0.3807709
220	0x3e099de2	0.13439134
221	0xbe38eab2	-0.18058279
222	0x3df596f8	0.11991686
223	0xbdcd53f0	-0.100257754
224	0xbe52c206	-0.20581827
225	0xbeea74c6	-0.45792216
226	0xbe923556	-0.28556317
227	0xbef881bf	-0.48536488
228	0xbe8fcbbe	-0.2808513
229	0xbe7511d4	-0.23932582
230	0xbcfe2630	-0.031024069
231	0x3e322bc4	0.17399508
232	0xbe83eed1	-0.2576814
233	0xbe749ccf	-0.23887943
234	0xbe8f8df5	-0.28037992
235	0xbe0f34b0	-0.13984942
236	0x3e36b2fc	0.17841715
237	0x3d8cc5cf	0.068736665
238	0x3d0a59c1	0.033777002
239	0xbe821928	-0.25409818
240	0xbe169e98	-0.14708936
241	0xbe885179	-0.2662466
242	0xbe8181d9	-0.25294378
243	0xbd2c258f	-0.042028006
244	0xbe73b156	-0.23798117
245	0x3e0a8460	0.1352706
246	0x3e0b1f8a	0.1358625
247	0xbde30e7c	-0.11086747
248	0xbe7b2a7a	-0.24527922
249	0xbe19570f	-0.14974616
250	0xbeb7e6b1	-0.3591819
251	0xbd527114	-0.05137737
252	0xbd4471fd	-0.04796027
253	0xbed08234	-0.40724337
254	0x3e40db52	0.18833664
255	0xbd8204c1	-0.06348563

fc3.bias f4 [28]
0	0xbe26aedc	-0.16277641
1	0x3dd99cfd	0.10625646
2	0xbea09281	-0.31361774
3	0xbebaed83	-0.36509332
4	0xbe80d671	-0.25163606
5	0x3ccaab77	0.024739964
6	0xbc8bc263	-0.017060464
7	0xbe49df9b	-0.19714205
8	0xbb946cd8	-0.0045295767
9	0xbdae8f2f	-0.08523404
10	0xbce4443e	-0.027864572
11	0x3e3482a0	0.17627954
12	0x3e042cbc	0.1290769
13	0xbe71d5e4	-0.23616749
14	0xbe1a976d	-0.15096827
15	0x3da485f0	0.08033359
16	0xbe173014	-0.14764434
17	0x3d681590	0.05666119
18	0xbe611e19	-0.21984138
19	0x3e70ce38	0.23516166
20	0xbdab117f	-0.083529465
21	0xbe8f883a	-0.2803362
22	0xbe2fa298	-0.17151868
23	0x3e39f64b	0.1816036
24	0xbe22652a	-0.15858904
25	0xbe035148	-0.12823975
26	0x3ddb9630	0.10722005
27	0xbe366514	-0.17811996
