dqn_normal.pth (torch, 5030 bytes, 6 tensors)

fc1.weight f4 [16, 16]
00000000: d256 4ebf df76 19bf 36bf 1dbf 4219 32bf
00000010: daef 1dbf afec d6bd 916c 373f aaa0 b93d
00000020: 39ab 363e fcc3 6ebf d577 4ebf 6b56 3dbe
00000030: 4704 8ebe 0442 4ebf 9eff fbbe 7fe2 c93d
00000040: c30e 25bf 7bea 81be 535c f63d eddf 47be
00000050: b3c3 4c3e 61b3 b3bc 9ea4 703f f832 77be
00000060: 0bea 8b3e 6346 7ebf a3e1 aabe df5e 0dbe
00000070: dc8e 4d3e 2af3 d2be 2180 e5bd 1ae6 463d
00000080: ff42 24bf db4e f0be 9499 21bf 966c f9bd
00000090: a888 07bf 28bc 1fbf 0917 ea3f 1402 99be
000000a0: 293c ca3f 4ac7 e8be 8bc8 703e 7586 e2be
000000b0: 8d4a 7fbc ad7d f63e d9ce d0bd e1db 1e3f
000000c0: f2fc 2b3f 2ffd a43f ce6f 563f e004 7d3f
000000d0: 5ace 4e3f 8b48 333f f62a 873f 46c0 193e
000000e0: a8d5 d93e 0b40 4cbf f65d 863d 133e 3abf
000000f0: 64d2 4cbf 49b4 873f b12a 3e40 5446 633d
00000100: a4dd a43f 17d4 983f ad1d 4a3f 9709 9e3f
00000110: 42ad a23f 51a0 d23f acf7 d03f 4fea 183f
00000120: 5d00 b7be 31b2 10bf 9b65 493e 70ec a13d
00000130: 0bcb 98be fe14 0b3e b64f 403f 9e3a c53d
00000140: 9136 133f 1b66 a33e e8f0 d5bd 3929 633f
00000150: 43a0 0c3f dfd0 f83e 21bf a23f d8ee 623f
00000160: 6688 2dbf 6c90 1fbe c2f6 37bc fabd 473e
00000170: 5295 e83d aa3c dd3e 66f2 d43e 1279 4f3e
00000180: ca1e c03f f431 f03f 86e7 dd3f a069 c33f
00000190: c1f8 1740 38f1 df3f 1d11 d83f 1022 f8be
000001a0: caf0 84bf 718c 30be 029f 183f 73b1 053f
000001b0: 3c92 29be 5ffe cb3d 1b86 63bc 960f 40be
000001c0: 4c43 a0bf 00cb c1bf 4145 67be aa93 4bbf
000001d0: e999 f1bf 3bed 7ebf 547b 7b3e 877c b13f
000001e0: 9231 d0be b1cc 2dbc d564 2abf 0348 cc3e
000001f0: 4c82 09bf 3ec1 dfbe 3a83 8d3e 74e9 c53d
00000200: 2009 df3f 9b43 d33f 655b a03f 091a d73f
00000210: 95a2 c73f 5a2f d23f a8d5 a23e 3c07 f63e
00000220: bb76 15bf e0a8 28bf f6ec 5dbf 043e 28be
00000230: 59fc f8be dbf0 c63e bd0f db3f 48c7 223e
00000240: ab78 e73e 8648 08be d467 38be ca23 4e3f
00000250: 07eb 913d 05b2 ec3e 5915 85be 5b15 1640
00000260: fe88 52bf c745 693e 634f 50bf 5e14 d73e
00000270: 5733 ecbd b742 303e b813 40bd 9a53 f83d
00000280: 4276 c83f 0ae2 d93f 338d 943f fc6a 0b40
00000290: e055 ec3f 52c4 f23f 62bb 153e b79e 8a3f
000002a0: 7380 c2be 97bd afbe c11b 48bf 6528 b5bd
000002b0: 4f3a 43bf 38ef c33e 88ef c33f bd7d b6bd
000002c0: 325e bd3f dea2 da3f 52b3 fa3f 5d89 f13f
000002d0: bc81 ee3f e5b6 ee3f 3455 68bf de9f 273f
000002e0: 17de 843f e8eb e23e eeea ce3d c90b 0bbf
000002f0: 12e2 2abe a398 0e3f ddbb 343f e100 0b3e
00000300: 93ed b33f 487e be3f a074 a03f ca06 1740
00000310: 41e8 1940 5af6 0f40 5d8d b83e 0952 263f
00000320: 9bf2 99bd 8222 e03e 485d 803f ecd9 6e3f
00000330: aeea a3be 3d18 8fbe e2e0 abbe a00c 2abd
00000340: 0f92 59bf 0008 f2bf f83d c4bf e1b6 6ebf
00000350: e5c5 cabf a6e5 83bf 6db9 503f 5132 263f
00000360: 5071 b93e 0992 a3be 98be 13bf bc63 dbbe
00000370: 8917 ddbd 4ffc b33e e854 eb3d fbe0 6fbd
00000380: e65d 65bf 0d4f 51bf 6768 e0bd 9770 f5be
00000390: 2d72 19bf ecb5 15bf 32fd b43f 7bad 1cbf
000003a0: 3d59 c3bd 0180 29bf 9a38 98bc 6ee2 c53e
000003b0: aeba debd 08f8 4cbf 9c5b e2be 4a8f 973e
000003c0: 60ae 0440 1822 f63f eae4 e23f 587e 5040
000003d0: 3fef 3340 b04a 3340 a080 34bf 449b 8a3f
000003e0: 8454 863f 2462 603f a34a a23e a87f f33e
000003f0: 0fb4 bfbe bf4e bebe 2d99 2dbf 4af3 853e
-0.8060123 -0.5994701 -0.6161989 -0.6956979 -0.6169411 -0.104943626 0.71650034 0.09063847
0.17838754 -0.932678 -0.806516 -0.18489997 -0.27737638 -0.8056948 -0.49218458 0.09857654
-0.6447565 -0.25374207 0.12029328 -0.19519015 0.19996528 -0.02193612 0.94001186 -0.24140537
0.27326998 -0.9932615 -0.33375272 -0.13805722 0.20074028 -0.41201144 -0.11206079 0.048559286
-0.6416473 -0.46935162 -0.63124967 -0.12178914 -0.52942896 -0.6239648 1.828828 -0.29884398
1.579961 -0.45464545 0.23514001 -0.44243208 -0.015581739 0.48142758 -0.10195703 0.6205426
0.6718284 1.2889766 0.8376435 0.98835564 0.8078362 0.70032567 1.0559986 0.15014753
0.4254582 -0.7978522 0.065608904 -0.7275097 -0.8000853 1.0601894 2.9713557 0.055486992
1.2880139 1.1939725 0.7895153 1.2346677 1.2709124 1.6455175 1.6325583 0.59732527
-0.35742465 -0.565219 0.19667666 0.07906425 -0.2984241 0.13582227 0.7512163 0.09630321
0.57505137 0.31913838 -0.1044634 0.88734776 0.5493204 0.48596856 1.2714578 0.88645697
-0.6778625 -0.15582436 -0.011228265 0.19506064 0.113566056 0.43210346 0.41591185 0.20261028
1.5009396 1.8765244 1.733628 1.5266609 2.3745577 1.7495489 1.6880223 -0.48463488
-1.0385983 -0.17241074 0.59617627 0.5222389 -0.1655969 0.09960627 -0.013886954 -0.18755946
-1.2520537 -1.5140076 -0.22585012 -0.7952219 -1.8875095 -0.99580735 0.24558765 1.3866128
-0.4066282 -0.010607884 -0.6656011 0.3989869 -0.5371444 -0.4370212 0.2763918 0.09663668
1.742466 1.6505007 1.2527891 1.680482 1.5596491 1.64207 0.31803632 0.48052394
-0.58384293 -0.6588268 -0.866897 -0.16429907 -0.48630026 0.38855633 1.7114178 0.15896332
0.4520925 -0.13308915 -0.18008357 0.8052336 0.07124906 0.46229568 -0.2599285 2.3450534
-0.82240283 0.22780524 -0.81371135 0.42007726 -0.1153323 0.1721295 -0.046893805 0.12125321
1.566109 1.7022107 1.160559 2.1784048 1.8463707 1.8966162 0.14622262 1.0829686
-0.37988624 -0.34324333 -0.7816735 -0.08845595 -0.76260847 0.38268447 1.5307474 -0.089107014
1.4794371 1.7080953 1.9585974 1.8870045 1.8633342 1.8649565 -0.9075501 0.6547831
1.0380276 0.44320607 0.10103403 -0.5431486 -0.16687801 0.55701655 0.70599157 0.13574554
1.4056877 1.4882288 1.2535591 2.3597894 2.4048007 2.249411 0.36045352 0.64968926
-0.075169764 0.43776327 1.0028467 0.9330127 -0.32014984 -0.2794818 -0.3357001 -0.041515946
-0.8498849 -1.8908691 -1.5331411 -0.932478 -1.5841643 -1.0304458 0.8153294 0.64920527
0.36219263 -0.31947353 -0.577127 -0.4284953 -0.107955046 0.35153434 0.11490804 -0.058564167
-0.895964 -0.81761247 -0.10957413 -0.47937462 -0.59939843 -0.58480716 1.4139769 -0.6120221
-0.09538505 -0.66210943 -0.018581677 0.38649315 -0.1087545 -0.80065966 -0.44210517 0.29601508
2.073143 1.9229155 1.7726109 3.2577114 2.8114774 2.8014336 -0.70508766 1.0828633
1.0494542 0.8764975 0.31697568 0.4755833 -0.3744206 -0.37169454 -0.6781185 0.26162177

fc1.bias f4 [16]
00000000: 9b10 61be 0958 8fbd 744c 2f3f 9582 05bc
00000010: 2ade 49bd aa27 9f3e fd53 1fbe 6464 593e
00000020: 6269 bf3c 60fd e83e fdb9 a2be 3505 e83d
00000030: 7906 6c3e 14cb 913e ab61 803e bf13 a33e
-0.2197899 -0.06999213 0.68476033 -0.008148809 -0.049284138 0.3108495 -0.15559383 0.21229702
0.02336568 0.4550581 -0.31782523 0.11329118 0.23049344 0.2847525 0.25074515 0.31851003

fc2.weight f4 [12, 16]
00000000: e901 563f e217 d53e 3d9d d03d 542a dd3b
00000010: 17a5 083d 5392 fb3e 93f4 9bbf d1c7 0640
00000020: 978f 0d3e 93e7 e73f 8ea8 3d3f e79b 03be
00000030: cfcb 33be 6c1b a03f 40a7 943d 6060 aa3e
00000040: eb86 d1bd 0477 1fbe 62af 26be 4e7c 403e
00000050: 6cf1 78bd 2ee6 24be 5002 28be 2881 1abe
00000060: 7620 803d 0a26 73be 218a 22be 717b 64be
00000070: 37c3 71bd f6fa 52be 0edc e3bd d7ee 843d
00000080: 27d5 23bf 2eca f83d 03b2 33bf 86f8 cb3e
00000090: c4d6 c43e f231 a23e 52ff 7c3f 6e17 39be
000000a0: 7d81 903f 82d5 363f 9a99 403f 35a7 753f
000000b0: dbb9 9e3f be02 9abe 8f80 d23e 09f1 613f
000000c0: f415 1e3f 494f 483f 6c18 b73f 6a4b 383d
000000d0: e955 243f a68c f23e d9c4 7bbe edc5 213e
000000e0: 9039 bfbe 7bcc 36bf 0a92 263e 6658 62be
000000f0: e4ee a23c c3b3 4e3f 77b8 da3e 3b7e abbd
00000100: 1d38 f43d e705 233f 38be 503e 83e5 8e3f
00000110: 632c 1c3f ec44 743d 92fd b83f 0028 bbbf
00000120: 7e7d 643f 5c82 11bf aea6 d83e e897 3d3f
00000130: 204a 653f 7284 d3bd 2e05 993f 9efa 413f
00000140: 65fb 813f 67bd 9b3f 35fc 9a3f ecfd 853e
00000150: 4ddf 963f 3e4c 1e3f c7f4 a73f 9ca7 0abd
00000160: d398 0b3e 20a0 16bf 0096 54bd e1c1 ffbf
00000170: dd93 81be dd6e ae3e ae16 d73f 180b 9abf
00000180: 56b5 babe aedd ef3d 7ce4 8c3f 7311 7c3f
00000190: 333f 42be e191 13be e71b 393e d014 abbf
000001a0: e8d8 38bf ee4a d0bf 550f 2dbf f8c8 203f
000001b0: 202a ad3e c65f 73be f472 883e 9cdb b63e
000001c0: 8776 86be 9e1c b13d 2029 7ebd dfeb d33d
000001d0: 5400 81be 4f95 f13d 1066 1d3e 9b72 a23d
000001e0: 8b44 23bd 3c5f 033e c3eb 50bd 0f50 cc3d
000001f0: 4985 3dbe c497 44be f600 0e3e d0e6 a5bd
00000200: a822 003f 071c 043e 3c0d ae3f 722f 223f
00000210: 48b1 12bf 2f6f 4fbf 24d3 00c0 9365 9d3e
00000220: 9e0e eabe b602 4bbf 30a3 9e3d f2f6 543f
00000230: f9b3 a5bd c92c a33f 5928 cfbc be5a 2a3f
00000240: bc66 5c3f 0e22 713f 9ac1 013f a3e3 d7be
00000250: c3fc 573f 23a1 8a3f aa0d 443f 7ec9 d03f
00000260: a720 ad3e de3e cb3f c4d2 113e 0e01 b8bf
00000270: 276a 963e f049 193f 0f26 933f c028 353d
00000280: 8d4e de3e b692 8f3f f1dc e63e 6f45 c23f
00000290: ead0 6d3f 483a 933e 65cb 0d40 0e3f ccbf
000002a0: dcbd 0b3f db63 9fbf 2b4b 263e 1847 7d3e
000002b0: e7dc 433f a52c a8be 3c00 ca3f 240d 8d3d
000002c0: 6c21 c9be 7298 9abe d372 35be 1ba3 2e3f
000002d0: 9665 8bbe dd83 d5be d03a 96bf 3e1a 003f
000002e0: b51c 3f3f 5fc1 823f c04b 303f bd47 0a40
000002f0: 3dd6 fa3e 4f8a 0e3f 25c4 d7be 26d3 c63f
0.83596665 0.41619784 0.10186241 0.0067494307 0.033360567 0.49135074 -1.2184013 2.1059458
0.13824306 1.8117546 0.7408532 -0.12852441 -0.17558216 1.2508368 0.07258463 0.33276653
-0.10230812 -0.15572745 -0.1627784 0.18797418 -0.060777113 -0.16103432 -0.16407132 -0.15088332
0.062561914 -0.2374498 -0.15873004 -0.22312714 -0.059024062 -0.20603547 -0.111259565 0.064908676
-0.6399712 0.12147938 -0.701935 0.39838046 0.38445103 0.3167873 0.9882709 -0.18075344
1.1289517 0.7141954 0.7523438 0.9595826 1.2400469 -0.30080217 0.41113707 0.88258415
0.6175225 0.7824598 1.4304328 0.044993795 0.6419359 0.4737293 -0.2458681 0.15798159
-0.37348604 -0.7140576 0.16266647 -0.22104034 0.019889303 0.80743045 0.4271886 -0.08373686
0.11924765 0.6368088 0.20385063 1.1163791 0.6100523 0.05963604 1.4452384 -1.4621582
0.89253986 -0.5683954 0.42314667 0.74059916 0.8956623 -0.10327996 1.1954706 0.75773036
1.0154845 1.2167176 1.2108217 0.2617029 1.1786896 0.61835086 1.3121575 -0.03385125
0.13632517 -0.5883808 -0.051900864 -1.9981042 -0.25308123 0.34068957 1.6803796 -1.2034636
-0.36466473 0.11712204 1.1007228 0.98464125 -0.18969421 -0.14411117 0.1807705 -1.3365726
-0.7220597 -1.6272867 -0.6760152 0.62806654 0.338212 -0.23767003 0.26650202 0.35714424
-0.26262304 0.086480364 -0.06205094 0.10347723 -0.25195563 0.117960565 0.15370965 0.079320155
-0.03986029 0.12829298 -0.05100609 0.099762075 -0.18507876 -0.19198519 0.13867554 -0.081006646
0.5005288 0.12901317 1.3597789 0.63353646 -0.5730176 -0.8102903 -2.012887 0.30741557
-0.45714277 -0.7930101 0.07745969 0.8318931 -0.08090968 1.2748042 -0.025287794 0.6654471
0.8609426 0.9419259 0.5068604 -0.4216586 0.8437006 1.0830425 0.7658335 1.631149
0.33813974 1.587856 0.14240557 -1.4375322 0.29377863 0.59878445 1.149599 0.044228315
0.43419304 1.1216648 0.4509044 1.517744 0.928969 0.28755403 2.2155392 -1.5956743
0.5458658 -1.2452348 0.16239612 0.24734151 0.76508945 -0.3284656 1.5781322 0.06887272
-0.3928331 -0.30194432 -0.17719583 0.6821763 -0.2722594 -0.41702166 -1.1736698 0.5004004
0.7465318 1.0215262 0.68865585 2.1606286 0.48991576 0.5567979 -0.42141834 1.5533187

fc2.bias f4 [12]
00000000: ed00 8e3d 3f77 48bd bab3 35be ea34 763f
00000010: e2c7 ebbb 7076 323e 2adb 8b3e 8cef 79be
00000020: b977 083f a078 6b3e dac6 1dbe b574 303e
0.0693377 -0.048941847 -0.17744341 0.9617449 -0.0071954587 0.17427993 0.27315646 -0.24407786
0.5330768 0.22995234 -0.15407887 0.1723202

fc3.weight f4 [10, 12]
00000000: 3ae1 5c3f d825 d5bd 001b e03e ee22 4e3f
00000010: eb2f 293f ae7e 223f 5196 1a3f 5026 28be
00000020: 7c29 9e3f a3a8 473f 336a 3a3f 5e40 193f
00000030: 4282 393f 9e4d 533e 2ac8 183f 9e47 323f
00000040: 9761 013f c031 493f 0646 bf3e 3c3c f83d
00000050: 69d5 f83f f2ac 393f 2a2e 3c3f 824f ed3e
00000060: 435d 7f3f 10d1 373d 2005 4b3d b618 823f
00000070: c74a 233f 7c40 813f 8d79 02bf da11 1d3e
00000080: 58ad a13f b1dc d63e 326e 4f3f 9b84 313f
00000090: 33b4 443f 0490 7ebe b0a2 6b3f 9c0e 8e3f
000000a0: 616c 9f3e d90f 473f e172 923f 6efb d8bd
000000b0: 54fe 9f3f 19ad 553f fffc 033f fd77 d93e
000000c0: 36db 733f 7665 443e 169d 233f b27f 8b3f
000000d0: 7484 213f 094f 433f 6c0d 7a3f a03b 30bc
000000e0: 0443 993f 5ccc 683f 57e3 e63e 96f2 243f
000000f0: a06b 3e3f 40d2 64bd 9e6d 073f 5cff d83f
00000100: e89a 3f3f b8bc 433f ff5e 2c3f 38c4 44bd
00000110: 2f18 e23f a8ed 513f 5bb8 003f ef35 393f
00000120: 95c3 6d3e 59de 5a3e 4275 863f 6f86 17bf
00000130: db4b 143f abdc 07c0 685d 013e 6f95 f73d
00000140: 6421 4a3f e006 4fbf 27ef b23d c8c7 e63f
00000150: e863 b2bf c849 9ebd ee0f b13e b8e3 0d3e
00000160: 14fe 653f 47cf 623f b89d 1e40 bce6 713e
00000170: a614 1dbd 2109 33bf 6981 bd3f 3897 83be
00000180: d1fc 863e 09bc d23d cdb2 943f e98a 05bf
00000190: 9395 4d3f 328a 3a3f 2ca1 a4bf 2123 193e
000001a0: 0b9b 09c0 8069 9e3f 6f36 6c3f 89db 85bd
000001b0: 353a 553f 65b1 463d c8fe 583f b577 a23f
000001c0: 85cb 033f ece9 463f 6eab 743d d44c 063e
000001d0: a85f eb3f 0ed9 f03e 5d2e 3b3f d94b 0a3f
0.8628117 -0.10407609 0.437706 0.8052205 0.6608874 0.6347455 0.60385615 -0.16420865
1.235641 0.77991694 0.728183 0.5986384 0.7246438 0.20635077 0.59680426 0.6964053
0.50539535 0.7859154 0.3735811 0.12120864 1.9440128 0.7252952 0.7350794 0.46349722
0.9975168 0.044877112 0.049565434 1.0163791 0.63785976 1.0097804 -0.5096672 0.15338841
1.2631025 0.4196525 0.8102752 0.69342965 0.7683746 -0.24859625 0.92045116 1.1098208
0.31137374 0.77758557 1.1441308 -0.105948314 1.249949 0.8346725 0.51557916 0.42474356
0.95256364 0.1917933 0.6391157 1.0898345 0.6309273 0.76292473 0.9767673 -0.010756403
1.1973577 0.9093683 0.45095322 0.64432657 0.7438297 -0.055864573 0.5290164 1.695293
0.74845743 0.76459837 0.6733245 -0.04803869 1.766363 0.8200326 0.50281304 0.7234792
0.2321914 0.21373881 1.0504534 -0.59189504 0.57928246 -2.1228435 0.12633288 0.12089049
0.789572 -0.80869865 0.08737021 1.8029718 -1.3936739 -0.077289164 0.34582466 0.13856399
0.8984082 0.8859753 2.4783764 0.23623174 -0.03834977 -0.69935805 1.4805118 -0.25701308
0.2636476 0.10289771 1.1617066 -0.52165085 0.8030636 0.7286712 -1.2861686 0.14954807
-2.150088 1.2375946 0.9227056 -0.06536014 0.8329194 0.04850902 0.84763765 1.2692782
0.5148242 0.77700686 0.0597338 0.13115245 1.8388567 0.470406 0.7311762 0.54021984

fc3.bias f4 [10]
00000000: 3afe be3d 2279 c7bd a5fb 4cbf a4f1 993f
00000010: 2728 d53f db91 913f 6e10 05be 10b5 dbbe
00000020: b328 86be 3c46 913f
0.093258336 -0.09739901 -0.8007148 1.2026868 1.6652879 1.1372637 -0.12994549 -0.42911577
-0.26202926 1.1349559
