dqn_normal.pth (torch, 7526 bytes, 6 tensors)

fc1.weight f4 [16, 40]
0.16717924 -0.0053798202 0.24844426 0.0849537 0.2969075 0.21551745 0.16741367 0.1662823
0.03341508 0.0591616 0.077405915 0.21531369 0.3395426 0.08576732 0.04524208 0.031496014
0.24398285 0.13157752 0.12813225 0.28880015 0.107983306 0.15614738 0.30280796 0.22933687
0.2821632 0.113864556 0.07048252 0.2687368 0.109611556 0.23781362 0.21961029 0.18892676
0.032893542 0.12849584 0.023512516 0.020995785 0.26300606 -0.000880035 -0.029972065 0.016061539
0.31876212 0.044573057 0.00076829 0.22562312 0.21570529 -0.017235134 0.18925564 -0.1212269
0.24458851 0.14514829 0.21886247 0.086690955 0.1606441 0.17296733 0.15327147 0.30983946
0.107423626 0.25612754 0.061985604 0.21713775 0.17967269 0.08751225 0.27511558 0.09536646
0.26819393 0.20754482 0.06791708 -0.029459799 0.24613822 0.16072127 0.11882635 0.040541634
0.06634598 0.07307534 0.1830212 0.22204573 -0.057109542 -0.22601232 -0.057845127 0.27071816
0.21508251 0.10507951 0.10542352 0.04948295 0.24944334 0.12904182 0.26869223 0.029845286
0.30081728 0.12468942 0.15335722 0.15959103 0.15249091 0.104410626 0.2125076 0.19049476
0.11821045 0.22301394 0.18977849 0.31023145 0.12811516 0.23804112 0.32424065 0.34958813
0.12203082 0.14911112 0.3141667 0.12917072 0.28990003 -0.020672763 0.13499953 0.28400913
0.17220059 0.096295305 0.044413947 0.19826555 0.11613185 -0.055226848 -0.24926682 0.27742139
-0.24474818 -0.090218954 -0.012862081 -0.05613545 -0.06909029 -0.03573727 0.022661839 0.20426513
0.008255641 0.039722316 -0.23930244 0.08132913 -0.02993663 0.032886185 -0.19658439 -0.18046752
0.007877606 0.09339201 -0.10254678 -0.16419089 -0.09597803 -0.09389263 -0.020777771 -0.005395962
0.10777535 -0.0971454 0.018963879 0.16811387 -0.12903965 0.09593626 0.087504715 -0.038565885
0.15423049 0.035676695 0.03791463 -0.1292451 0.058979046 -0.060920227 0.17563738 -0.046376426
0.014124706 0.14263539 0.03679076 -0.1546183 0.04751049 -0.074862815 -0.027295142 0.13706355
0.050474048 0.114418104 0.07127087 0.05276473 -0.14641654 0.119542286 -0.075602554 -0.026465714
-0.031720012 -0.06323307 0.007712409 0.08745408 -0.039896965 -0.061561912 -0.06821043 -0.013087496
-0.10368137 -0.037186995 0.05886756 0.114072874 0.032654807 -0.12971736 -0.065680735 -0.1237044
-0.013372093 -0.15686597 0.13962756 -0.14787179 -0.15509991 0.110832796 -0.14811668 -0.029760808
0.054538675 -0.026255941 0.15383677 -0.09883799 0.056616485 0.004260207 -0.13529608 -0.0112914
-0.06667751 -0.078755476 -0.1372075 0.055113874 0.014872953 -0.059644744 -0.09283451 -0.10888821
-0.06517381 0.046429813 -0.052956298 0.01126839 -0.15647656 -0.06869872 0.062570676 -0.059829965
0.009988726 0.12967327 -0.027115738 -0.1407657 0.065634064 0.019751526 0.09639776 -0.0058150785
0.05316449 -0.12229832 -0.028172623 0.013455087 -0.118026964 -0.036527302 0.15708557 -0.098088786
0.29349026 0.3097732 0.16435637 0.27916095 0.2775272 0.17744328 0.13782586 0.23810229
0.22833124 0.16562037 0.31954 0.1074525 0.119141966 0.29992396 0.13486005 0.30367512
00000000: 0931 2b3e 3449 b0bb 2c68 7e3e 35fc ad3d
00000010: 4304 983e 9bb0 5c3e 7d6e 2b3e e845 2a3e
00000020: 40de 083d 6f53 723d fe86 9e3d 317b 5c3e
00000030: 87d8 ad3e c7a6 af3d c24f 393d f701 013d
00000040: a4d6 793e 42bc 063e 1a35 033e 9ddd 933e
00000050: 5a26 dd3d 19e5 1f3e a509 9b3e 49d7 6a3e
00000060: b277 903e d231 e93d 2459 903d df97 893e
00000070: 067c e03d 6a85 733e 85e1 603e 0476 413e
00000080: 61bb 063d 6a94 033e 529d c03c 5aff ab3c
00000090: bba8 863e 26b2 66ba fa87 f5bc 7d93 833c
000000a0: ca34 a33e 3d92 363d 1267 493a bf09 673e
000000b0: d9e1 5c3e b230 8dbc 3bcc 413e cf45 f8bd
000000c0: 6975 7a3e c1a1 143e 7c1d 603e 078b b13d
000000d0: e37f 243e 591e 313e 32f3 1c3e 47a3 9e3e
000000e0: eb00 dc3d 2623 833e 9ee4 7d3d 5c59 5e3e
000000f0: 1efc 373e 9f39 b33d f3db 8c3e 7e4f c33d
00000100: b750 893e a186 543e 1c18 8b3d ad55 f1bc
00000110: a80b 7c3e 1e94 243e 3b5b f33d fc0e 263d
00000120: 67e0 873d 86a8 953d e969 3b3e f55f 633e
00000130: b2eb 69bd c66f 67be 03ef 6cbd 929b 8a3e
00000140: 973e 5c3e ed33 d73d 49e8 d73d a2ae 4a3d
00000150: 136e 7f3e 8a23 043e 0792 893e 1a7e f43c
00000160: b904 9a3e 2b5d ff3d ad09 1d3e d56b 233e
00000170: 9426 1c3e 3dd5 d53d 989b 593e 0f11 433e
00000180: 5218 f23d c45d 643e 4b55 423e a8d6 9e3e
00000190: 9f30 033e 0dc1 733e df02 a63e 37fd b23e
000001a0: 4beb f93d 96b0 183e 75da a03e 5445 043e
000001b0: c76d 943e ed59 a9bc 513d 0a3e a569 913e
000001c0: 5a55 303e 7936 c53d 66eb 353d 2006 4b3e
000001d0: 89d6 ed3d 8c35 62bd cd3f 7fbe 2d0a 8e3e
000001e0: 449f 7abe b7c4 b8bd 7abb 52bc 49ee 65bd
000001f0: 367f 8dbd 3e61 12bd 52a5 b93c e12a 513e
00000200: ab42 073c deb3 223d b30b 75be e38f a63d
00000210: aa3d f5bc aab3 063d 6b4d 49be 7acc 38be
00000220: 1311 013c 4f44 bf3d 0c04 d2bd a821 28be
00000230: 2190 c4bd c74a c0bd 2536 aabc 9cd0 b0bb
00000240: 53b9 dc3d 2bf4 c6bd 235a 9b3c 0b26 2c3e
00000250: f822 04be 3b7a c43d ac35 b33d 43f7 1dbd
00000260: 99ee 1d3e ba21 123d 5f4c 1b3d d458 04be
00000270: 0394 713d 7d87 79bd 49da 333e 35f5 3dbd
00000280: 506b 673c 030f 123e e8b1 163d 4254 1ebe
00000290: 5c9a 423d ad51 99bd 109a dfbc 635a 0c3e
000002a0: e0bd 4e3d 0a54 ea3d 76f6 913d d41f 583d
000002b0: 38ee 15be 96d2 f43d 83d5 9abd a0ce d8bc
000002c0: d8ec 01bd 5780 81bd 60b8 fc3b 201b b33d
000002d0: 006b 23bd 5828 7cbd e9b1 8bbd f06c 56bc
000002e0: e656 d4bd 6451 18bd 1c1f 713d 0a9f e93d
000002f0: 0cc1 053d a1d4 04be 9f83 86bd bc58 fdbd
00000300: a016 5bbc 79a1 20be 87fa 0e3e b46b 17be
00000310: 83d2 1ebe 4efc e23d e6ab 17be f0cc f3bc
00000320: f263 5f3d b316 d7bc 6387 1d3e 926b cabd
00000330: b0e6 673d 3599 8b3b 0e8b 0abe 90ff 38bc
00000340: 388e 88bd 8d4a a1bd 1f80 0cbe 16bf 613d
00000350: b0ad 733c 0c4e 74bd 0520 bebd c800 dfbd
00000360: d979 85bd 302d 3e3d b4e8 58bd 0e9f 383c
00000370: 643b 20be eab1 8cbd 0e25 803d 4410 75bd
00000380: c1a7 233c 12c9 043e d321 debc e224 10be
00000390: 276b 863d f4cd a13c 306c c53d 6a8c bebb
000003a0: 02c3 593d 8b77 fabd 46ca e6bc ba72 5c3c
000003b0: 1fb8 f1bd a79d 15bd 0adb 203e c6e2 c8bd
000003c0: 5b44 963e 989a 9e3e 094d 283e 2fee 8e3e
000003d0: 0c18 8e3e b1b3 353e 3922 0d3e 16d1 733e
000003e0: aacf 693e 6398 293e bf9a a33e 0e10 dc3d
000003f0: b400 f43d a28f 993e c118 0a3e 4e7b 9b3e

fc1.bias f4 [16]
0.24238467 0.16439909 0.042865597 0.115630805 0.024684653 0.02687192 0.28361732 -0.03572333
0.046789452 0.16087814 0.060579106 0.12003617 0.044446215 0.12938479 0.058427926 0.25956386
00000000: b033 783e 3c58 283e d693 2f3d d8cf ec3d
00000010: 7837 ca3c 8022 dc3c 4a36 913e a052 12bd
00000020: 4ca6 3f3d 3dbd 243e cc21 783d 86d5 f53d
00000030: 3c0d 363d 727d 043e 1f52 6f3d 8ee5 843e

fc2.weight f4 [12, 16]
0.0923042 -0.053466346 -0.16119307 -0.09356351 0.08292237 0.19728439 -0.09017745 0.24023226
-0.06133769 -0.2382991 0.1714931 0.12260749 0.06910494 -0.26419535 -0.12022048 0.06970926
0.016981276 0.1579216 -0.06048163 -0.21850005 -0.13834438 0.05014792 0.10306099 0.12789237
-0.051026657 -0.07663776 -0.09740483 0.014181251 0.21406165 -0.13949244 0.15356562 -0.083629295
-0.04904085 0.09655634 -0.02330932 -0.25581735 0.0038390458 -0.11473687 0.40857872 -0.21770522
0.19064137 0.02554472 -0.069948934 0.09109529 -0.03350805 0.3607723 0.29891127 0.3509131
-0.13412164 0.085864335 0.22411273 -0.20627044 -0.17806828 0.16136515 0.37147194 0.08984241
0.17910676 -0.0127655165 -0.22292674 0.3112895 0.23863244 0.1301029 0.16464125 0.26171875
0.13039358 0.16727084 -0.018025173 -0.024606144 0.054547966 -0.24327444 -0.1842404 -0.14358342
-0.12279062 0.15517874 -0.12057988 -0.2086777 0.17032185 -0.18503153 0.07892311 0.21074745
0.10491551 0.039391275 0.26187783 0.25896287 0.23327377 -0.155467 -0.0148270205 0.16078794
0.3410789 0.10928853 0.30196494 -0.05815131 0.07280268 0.20345752 -0.016512133 -0.17720743
0.29833522 0.30611446 0.17900452 -0.13074432 0.24813592 0.11283207 0.43232134 -0.14245021
-0.051158983 0.17197458 0.2783943 0.32329082 0.07884942 0.19113381 0.14871591 0.058576144
-0.22278452 -0.015388693 -0.039000653 -0.052303143 -0.08206716 0.10897878 0.17164484 -0.027269483
0.10785243 -0.1502235 0.039410967 -0.25595528 0.10754032 -0.13888833 -0.079713166 -0.044876356
0.30188105 0.11070573 0.3786597 -0.14758076 0.14643231 -0.03935791 0.40540275 -0.15562004
0.2442928 0.1247127 0.17287588 0.39000836 -0.22734784 0.39841685 0.24722522 0.3347613
0.012594342 0.19709831 -0.17142406 -0.1123755 -0.23193055 -0.1759952 -0.17062375 -0.24575287
-0.18370426 -0.2076683 -0.15179375 -0.13203275 0.01594928 -0.15531334 -0.14497119 0.10707337
0.15573683 0.05819356 0.13577849 -0.08508663 -0.18458632 0.24253649 -0.041565664 0.19119474
0.26160383 0.27736852 0.360306 0.29757938 -0.021572376 0.3842071 0.33432895 0.13369831
-0.16026004 0.29085848 0.07555232 -0.2727373 0.04779142 0.100208156 0.40552497 -0.1817312
0.047590688 0.27553785 0.2520329 0.14386359 0.13459608 0.09731623 0.14940098 0.009452811
00000000: fc09 bd3d 87ff 5abd cc0f 25be 3a9e bfbd
00000010: 34d3 a93d eb04 4a3e f4ae b8bd 72ff 753e
00000020: 3b3d 7bbd ae04 74be e39b 2f3e a319 fb3d
00000030: e486 8d3d 9d44 87be 2836 f6bd bac3 8e3d
00000040: 511c 8b3c 33b6 213e 96bb 77bd 7abe 5fbe
00000050: 26aa 0dbe e867 4d3d a411 d33d 38f6 023e
00000060: 5401 51bd 42f4 9cbd 2f7c c7bd 7a58 683c
00000070: fa32 5b3e 1bd7 0ebe 4e40 1d3e d645 abbd
00000080: 0fdf 48bd 55bf c53d 30f3 bebc 7efa 82be
00000090: 8098 7b3b 2afb eabd 3b31 d13e 1eee 5ebe
000000a0: 7e37 433e 2943 d13c 6341 8fbd 2b90 ba3d
000000b0: bd3f 09bd 26b7 b83e e60a 993e e2aa b33e
000000c0: 2f57 09be a4d9 af3d cf7d 653e 8f38 53be
000000d0: 8857 36be e83c 253e 9231 be3e 4cff b73d
000000e0: c367 373e 7526 51bc e846 64be 5661 9f3e
000000f0: 105c 743e b239 053e b797 283e 0000 863e
00000100: e585 053e 0c49 2b3e 87a9 93bc d392 c9bc
00000110: b06d 5f3d ef1c 79be 84a9 3cbe 8807 13be
00000120: a679 fbbd 2de7 1e3e 96f2 f6bd 9baf 55be
00000130: da68 2e3e e878 3dbe 71a2 a13d 2ece 573e
00000140: f1dd d63d bf58 213d da14 863e c896 843e
00000150: 52df 6e3e be32 1fbe 08ed 72bc 98a5 243e
00000160: e5a1 ae3e aad2 df3d 269b 9a3e 1130 6ebd
00000170: 9219 953d 2b57 503e 7444 87bc dd75 35be
00000180: 65bf 983e 09bb 9c3e f64c 373e d7e1 05be
00000190: 5817 7e3e 8014 e73d 3959 dd3e 78de 11be
000001a0: 158c 51bd 1b1a 303e b389 8e3e 6086 a53e
000001b0: ce7b a13d 95b8 433e fc48 183e 8aed 6f3d
000001c0: a021 64be db20 7cbc 26bf 1fbd d23b 56bd
000001d0: d412 a8bd 4430 df3d aac3 2f3e 4064 dfbc
000001e0: bce1 dc3d 30d4 19be 656d 213d 920c 83be
000001f0: 193e dc3d be38 0ebe a840 a3bd 45d0 37bd
00000200: 2790 9a3e b0b9 e23d afdf c13e 691f 17be
00000210: 5af2 153e c335 21bd f390 cf3e dc5a 1fbe
00000220: e427 7a3e 5f69 ff3d 6006 313e 2daf c73e
00000230: dfcd 68be 4bfd cb3e 9c28 7d3e d565 ab3e
00000240: 8058 4e3c 24d4 493e ca89 2fbe 2025 e6bd
00000250: 347f 6dbe 1638 34be feb7 2ebe a4a6 7bbe
00000260: f81c 3cbe 00a7 54be d26f 1bbe 9833 07be
00000270: 10a8 823c 760a 1fbe 5473 14be 4849 db3d
00000280: 7a79 1f3e 5f5c 6e3d 8409 0b3e e641 aebd
00000290: 3204 3dbe 7c5b 783e c240 2abd 8ec8 433e
000002a0: f0f0 853e 3f03 8e3e 077a b83e 535c 983e
000002b0: 8db8 b0bc cbb6 c43e 2a2d ab3e 36e8 083e
000002c0: 351b 24be 67eb 943e 2dbb 9a3d 39a4 8bbe
000002d0: f0c0 433d ef39 cd3d f8a0 cf3e be17 3abe
000002e0: 74ee 423d 4c13 8d3e 750a 813e fa50 133e
000002f0: 8ed3 093e bb4d c73d 92fc 183e f7df 1a3c

fc2.bias f4 [12]
0.20208229 -0.19163132 0.3452478 0.3353728 -0.112744436 0.21632813 -0.005046973 0.17726111
0.03315834 0.20079765 0.2585368 0.16920833
00000000: a9ee 4e3e 003b 44be 52c4 b03e fcb5 ab3e
00000010: 8ee6 e6bd 1f85 5d3e 1461 a5bb f083 353e
00000020: 0ad1 073d e69d 4d3e ef5e 843e f344 2d3e

fc3.weight f4 [28, 12]
0.03628319 -0.21016783 0.04824551 0.03711097 0.088763215 -0.23006943 -0.13916598 -0.15959677
0.11728832 -0.18652812 0.12789261 0.032178428 -0.25700498 -0.11957696 -0.013816731 -0.33064073
0.14713666 0.18362795 -0.24545352 -0.09904356 -0.3019473 -0.2787328 0.117902316 -0.14001067
0.005687386 -0.028215855 0.16324253 0.19535285 0.08835688 0.15565401 -0.019512322 -0.054188937
0.07105597 -0.19806406 -0.017099757 0.023784721 -0.2277042 -0.17689541 -0.35816956 -0.008481734
0.2599231 0.04383261 -0.41544554 0.062166035 -0.07259931 0.081468046 0.1024119 -0.28659382
-0.22463676 0.21323945 -0.2526247 -0.27188832 0.1973612 -0.1645075 -0.12904972 -0.117663205
-0.2510588 -0.1074976 -0.08657546 0.00740187 0.18674865 -0.06521717 0.07340059 -0.07978411
0.020921407 -0.34935015 -0.15160277 -0.12701233 -0.34181246 -0.06216909 -0.19778483 -0.32237476
0.08819574 0.11734837 0.026093045 0.15364766 0.0903396 -0.2563768 -0.23286936 0.0047614276
0.14772962 0.09121457 -0.21658237 0.16645925 -0.114803985 0.16608 -0.46634123 -0.43666682
0.15564498 0.034673046 -0.13127428 0.0008446424 -0.41465548 0.14661849 -0.39052495 -0.2693131
0.10910717 -0.22120991 0.069177926 -0.43126616 -0.109171115 -0.42443067 -0.26532844 0.058206983
-0.2546923 -0.24944988 -0.26448855 -0.39926943 0.06783309 -0.07126565 -0.0808883 -0.078085735
0.12686191 -0.0346209 0.24495651 -0.03772971 -0.0151782725 -0.2567473 0.13913932 0.30545577
0.111926496 0.005879432 -0.17025954 0.1331993 0.13803077 0.004267754 -0.02652669 0.19350362
0.14422289 -0.1491952 0.2437212 -0.20705146 0.019591004 0.058444977 0.1846298 0.10559346
0.10892731 -0.10443031 0.27568373 0.06840241 0.39020097 -0.1855116 -0.056679223 -0.08196899
-0.045174345 0.057152767 -0.15237033 0.13067862 -0.15539229 0.13420153 -0.05186174 0.19503635
0.15962039 -0.14964037 0.095787674 0.35563397 -0.10486597 -0.010985613 -0.050646443 0.45524386
-0.10060635 -0.1347595 -0.095094934 -0.15337305 0.33071762 0.24704885 0.2863361 0.24186887
0.07907782 0.2828387 0.24759956 0.21288995 -0.10455817 -0.0107315695 0.380749 -0.21387069
0.100673005 -0.2683002 0.025265373 0.09215564 -0.14336014 -0.12739737 0.2894491 0.2265665
-0.19483697 0.3131845 0.28445336 0.03837487 0.07369812 0.099627376 -0.13509783 0.16377893
0.093244284 -0.23232149 0.3758122 0.033243693 -0.10884194 0.2890747 0.058351435 -0.055556267
0.35845855 0.042899936 0.36612684 0.25123376 -0.15879051 -0.20674631 -0.069953315 0.040808447
0.057945948 0.14767429 0.13562927 -0.04335168 0.40749267 0.13507211 0.2097749 0.17745084
0.039826583 -0.01831299 -0.07463108 0.18749227 -0.24965654 0.052744947 -0.16182055 -0.09938721
-0.3935849 0.09874177 -0.066764444 0.09312723 0.11339363 0.0005314052 0.2674816 -0.043539293
0.00399195 -0.108796045 0.075537145 -0.11564183 -0.10786648 0.07490417 -0.03425656 0.18381478
-0.18433027 0.18210024 -0.2809131 -0.0907814 0.094238006 -0.40813643 -0.28673765 0.20737895
-0.14494362 0.039234936 -0.0014869163 -0.049388036 0.04160263 0.22095734 -0.11326272 -0.35814917
00000000: af9d 143d 3c36 57be 159d 453d ac01 183d
00000010: 7dc9 b53d 5297 6bbe 8781 0ebe 566d 23be
00000020: dc34 f03d 3a01 3fbe 48f6 023e 87cd 033d
00000030: 2896 83be c4e4 f4bd 925f 62bc be49 a9be
00000040: feaa 163e f708 3c3e 2b58 7bbe 5ad7 cabd
00000050: d698 9abe 11b6 8ebe c576 f13d f55e 0fbe
00000060: 405d ba3b f024 e7bc 0d29 273e 940a 483e
00000070: 74f4 b43d c463 1f3e 4ed8 9fbc 38f5 5dbd
00000080: cb85 913d 4ed1 4abe ca14 8cbc 2dd8 c23c
00000090: 4a2b 69be 1224 35be 0062 b7be f9f6 0abc
000000a0: a414 853e d389 333d 47b5 d4be d0a1 7e3d
000000b0: f2ae 94bd b8d8 a63d 55bd d13d 6dbc 92be
000000c0: 2e07 66be 715b 5a3e 0658 81be f234 8bbe
000000d0: 0e19 4a3e a774 28be 9c25 04be 68f9 f0bd
000000e0: c78a 80be b427 dcbd 7a4e b1bd 638b f23b
000000f0: 0a3b 3f3e 9490 85bd 0c53 963d da65 a3bd
00000100: 5f63 ab3c 06de b2be c23d 1bbe 850f 02be
00000110: 0b02 afbe 04a5 7ebd 1b88 4abe 4e0e a5be
00000120: f89f b43d 5854 f03d 15c1 d53c d055 1d3e
00000130: f803 b93d d243 83be 4e75 6ebe c005 9c3b
00000140: 6f46 173e b4ce ba3d c5c7 5dbe 4b74 2a3e
00000150: 5a1e ebbd e010 2a3e 47c4 eebe cb92 dfbe
00000160: 6661 1f3e 5305 0e3d c46c 06be fe6a 5d3a
00000170: b94d d4be 2823 163e e3f2 c7be 68e3 89be
00000180: 9473 df3d da84 62be 28ad 8d3d ebce dcbe
00000190: 1b95 dfbd fa4e d9be 21d9 87be 726a 6e3d
000001a0: 0767 82be ca6f 7fbe 0b6b 87be 0b6d ccbe
000001b0: 13ec 8a3d baf3 91bd c4a8 a5bd 6aeb 9fbd
000001c0: 17e8 013e a5ce 0dbd e1d5 7a3e 788a 1abd
000001d0: 4aae 78bc 6274 83be 8a7a 0e3e b364 9c3e
000001e0: b839 e53d 40a8 c03b 8458 2ebe 6665 083e
000001f0: f057 0d3e 84d8 8b3b 804e d9bc d025 463e
00000200: 2aaf 133e a0c6 18be 0d92 793e 4c05 54be
00000210: 507d a03c 0064 6f3d 980f 3d3e 6241 d83d
00000220: 4815 df3d 8fdf d5bd 6b26 8d3e 9016 8c3d
00000230: 6cc8 c73e c1f6 3dbe 7928 68bd 5cdf a7bd
00000240: bc08 39bd 0519 6a3d f806 1cbe 9ed0 053e
00000250: 281f 1fbe 206c 093e fa6c 54bd 9cb7 473e
00000260: 8773 233e 533b 19be 542c c43d a815 b63e
00000270: f8c3 d6bd 00fd 33bc a572 4fbd b915 e93e
00000280: b40a cebd 65fe 09be 22c1 c2bd d30d 1dbe
00000290: d253 a93e 60fa 7c3e a59a 923e 79ac 773e
000002a0: 8df3 a13d 3cd0 903e bd8a 7d3e d3ff 593e
000002b0: 9822 d6bd 77d3 2fbc 88f1 c23e eb00 5bbe
000002c0: a62d ce3d a55e 89be 54f9 ce3c 19bc bc3d
000002d0: 00cd 12be 7574 02be ac32 943e 0c01 683e
000002e0: 5883 47be b859 a03e dfa3 913e f82e 1d3d
000002f0: 0aef 963d 7009 cc3d 1657 0abe aab5 273e
00000300: dcf6 be3d afe5 6dbe 756a c03e 8a2a 083d
00000310: 86e8 debd 9901 943e ea01 6f3d f88e 63bd
00000320: e187 b73e d8b7 2f3d fa74 bb3e b6a1 803e
00000330: fb99 22be 4eb5 53be af43 8fbd c226 273d
00000340: bb58 6d3d ee37 173e 66e2 0a3e 8891 31bd
00000350: e1a2 d03e 5850 0a3e 3bcf 563e acb5 353e
00000360: 3321 233d 2005 96bc 2ed8 98bd f9fd 3f3e
00000370: f7a5 7fbe 160b 583d 49b4 25be 868b cbbd
00000380: f683 c9be 2039 ca3d ccbb 88bd 7db9 be3d
00000390: eb3a e83d 004e 0b3a 59f3 883e 4256 32bd
000003a0: e7ce 823b 76d0 debd 38b3 9a3d a0d5 ecbd
000003b0: 1ae9 dcbd 5c67 993d 9b50 0cbd f139 3c3e
000003c0: 13c1 3cbe 7c78 3a3e d8d3 8fbe 99eb b9bd
000003d0: dbff c03d 42f7 d0be 47cf 92be 265b 543e
000003e0: 1a6c 14be d0b4 203d a2e4 c2ba 1c4b 4abd
000003f0: 8567 2a3d a442 623e 49f6 e7bd 545f b7be

fc3.bias f4 [28]
0.06846717 0.171602 -0.25700656 0.12457322 0.18818074 -0.357266 -0.2554412 -0.06831234
0.008245643 0.28136897 0.2011987 -0.007840791 0.27098978 -0.026015723 -0.038611453 0.03459811
-0.14579025 0.0726843 -0.094718784 0.18096904 -0.28410834 -0.16370979 -0.10619679 -0.33578274
-0.3169266 0.010532728 -0.31791002 -0.056250777
00000000: 8438 8c3d 6fb8 2f3e 5d96 83be 3f20 ff3d
00000010: 74b2 403e 92eb b6be 30c9 82be 57e7 8bbd
00000020: bc18 073c 980f 903e 0807 4e3e a976 00bc
00000030: 2cbf 8a3e ed1e d5bc 0b27 1ebd bfb6 0d3d
00000040: 0a4a 15be 82db 943d ecfb c1bd f34f 393e
00000050: a676 91be 8aa3 27be b47d d9bd b7eb abbe
00000060: 3444 a2be 7791 2c3c 1ac5 a2be 3767 66bd
