dqn_aggressive.pth (torch, 7566 bytes, 6 tensors)

fc1.weight f4 [16, 40]
00000000: 41be f83d 8e1a f93d 716b 06be ef59 eb3d
00000010: 70bf afbd 4bb8 27be d13e 8bbc cb3c a73c
00000020: 85cd 2ebd a07c 2ebe a151 23bd b5bd 2f3b
00000030: 29d9 443d af83 ef3c 7c83 fe3d 0f99 36be
00000040: b340 31be 4078 e5bc 6b1e fe3d 59d9 14bd
00000050: faf7 62bd 2c8f 11be 77a5 81bd 94ce f03d
00000060: c482 ca3d dfa8 5dbb 7286 e1bc 23e4 aa3d
00000070: f0bd 4cbb a32b a43d 8bb0 d03c fe7d 0fbc
00000080: 9aa6 dbbd 33eb 463d 670b 9a3c 9f87 debd
00000090: ad5e 40be af6e 8b3d b71e 373e 52c4 eabd
000000a0: 510f 8abd cd4a 8bbd 80d3 9d3c 7042 fc3c
000000b0: f83d cdbc 0a5a 9ebd fe45 39bd 3851 9abc
000000c0: 42ab 8c3d e22b adbd b94d 1bbe 39cf 093e
000000d0: 413c 193e bc92 6f3d e8c3 663d b04f eb3c
000000e0: 4061 1c3b 3030 893d 518a 1fbe 1818 b33c
000000f0: 615a 17be 72a7 eabd 2645 d5bd d69e 01be
00000100: 1c1e 03be 38c1 e2bd 887e d5bd 2098 323d
00000110: 7e69 8f3d e84a f1bd ce61 e8bd 78da 233d
00000120: b2d7 a23d ff6c 09be e280 ab3d f08a ffbd
00000130: 20aa 7b3c 0c1b b6bd 82f3 57bd 9397 0ebe
00000140: 6877 943d f52e 863e 7aab 943e 7102 303e
00000150: 5649 8b3e 6ed9 3f3d aef6 05bd 5e1d 683e
00000160: 4c6a a63d 3cac 973e 60c3 8a3d 8169 2f3e
00000170: be09 193d e8ab b93d 14ba ff3d 622f 1b3e
00000180: ebc0 603d a845 513d 3a94 aa3b 206b 0abc
00000190: 5bf9 1d3d 0b61 203b b9e0 893e 333f 323e
000001a0: 30d3 bf3c 1559 523e d730 503e 5817 463e
000001b0: b930 283e 264c e4bc 7e00 313e eb2d 4b3e
000001c0: bbf7 76bd 27d2 3b3d b478 b0bc f841 0a3e
000001d0: 3b92 66bb 2ab5 513e 2357 c13d 31bf f93d
000001e0: 457e b23d 55d7 f73c e553 653d f2ce 233d
000001f0: 4e6a 9cbc 5754 1dbd d582 0a3c 2328 043e
00000200: 47cd 0cbd 7474 89bd 92ab b8bc 0bd8 9bbd
00000210: 0fd1 643d 6a2d 7a3d 14be 0cbd 8eb0 1a3e
00000220: 95ec ce3d a080 57bd 67b2 8ebc 3a21 103e
00000230: 9f23 4c3d a395 4fbd a029 263d 83f3 96bd
00000240: 70c5 bd3d 3c01 18be e6f1 dfbd 72e6 e9bd
00000250: 0f0a b83d d7b2 48bc ef1d cebc b552 033e
00000260: 8a76 98bd a6aa 3c3c 343c a0bd 75a3 aebd
00000270: aac9 fd3d 7b7b afbd c5f5 0fbd 720b 22bd
00000280: b61c 043e 4e18 573e 33b2 503e 62d0 4f3e
00000290: dbd8 413e 8cee 2c3e 8cd5 983e f48c 623e
000002a0: 935b 873d 169a 053e a5b7 943e bef8 cc3c
000002b0: 0d9a 2e3e f21c 853e d08e 883e 5f36 5c3e
000002c0: 5044 8d3e d309 933e e620 de3d 6e0a 653e
000002d0: 0e09 873e 73ad 8a3e ba06 283d cbc3 363e
000002e0: f2d5 023e d109 ab3e de0e 013e 3b7a 673e
000002f0: b940 933e 078e 603e 278c fe3d 6492 b23d
00000300: fc5e 043e b33d ab3d 13df 5e3e 50b0 5d3e
00000310: be3c a13d e038 c0bc 67c9 9abd 2eba 003e
00000320: 3808 d33d 7d9a 133d 2e9f bb3c 669b bd3c
00000330: 040e c53d 6663 2dbb e6a7 0c3e 648e 8cbc
00000340: 98e6 7a3d 985d 453c d568 5d3d 53b8 bcbd
00000350: 4845 04be b86d b93d e5ae d4bd f527 f53c
00000360: e0f7 9c3d 14ab 98bd db2d ecbd 3f0d 4dbd
00000370: 48da 6bbc b7c5 13bd bdef 5e3d a5b2 bcbd
00000380: 0543 8bbd 53ee d83d e77c c33d ee68 e6bd
00000390: ce85 11be 12f4 f23d eaa0 1ebe 4650 a6bd
000003a0: 749c 11bd 547c 023d 4e45 41bd 4c64 a33d
000003b0: 047e e1bd 2267 d83d 40f7 0c3c 4823 73bc
000003c0: 540a 5c3e afc4 3b3b dcf2 f7bc 24f3 f63d
000003d0: c6df 5ebd b041 973d 3468 af3d 2ea3 043d
000003e0: f3d3 0e3b 7e56 713a 2d1b 76bd d1fd b93d
000003f0: c12f e73d 9687 ab3d a191 613e 0e27 993d
0.12145663 0.12163268 -0.13126923 0.11491763 -0.08581436 -0.16378896 -0.016997727 0.02041473
-0.042676467 -0.17039728 -0.03987277 0.0026815955 0.048058663 0.029237596 0.124274224 -0.17831825
-0.17309837 -0.028011441 0.124081455 -0.03634009 -0.05541227 -0.14214772 -0.06330388 0.11758152
0.09888223 -0.003382258 -0.027529929 0.08344295 -0.0031241141 0.080161355 0.025474807 -0.008758066
-0.10725136 0.048564147 0.018804265 -0.108657114 -0.18786116 0.068082206 0.1788281 -0.114632264
-0.067412026 -0.068013765 0.01926589 0.030793399 -0.025053963 -0.07732017 -0.045232765 -0.018837556
0.06868602 -0.084556356 -0.15166368 0.13457955 0.14964391 0.058489546 0.056339175 0.028724521
0.0023861676 0.06698644 -0.15580107 0.021862075 -0.1478057 -0.11457719 -0.1041358 -0.12658247
-0.12804455 -0.1107201 -0.104245245 0.04360211 0.07002543 -0.11781865 -0.1134678 0.04000327
0.07951297 -0.13420485 0.08374192 -0.12477672 0.015360385 -0.088918775 -0.05272246 -0.13925008
0.072493374 0.262077 0.29037076 0.17188431 0.27204388 0.046838216 -0.032705955 0.22667453
0.08125743 0.29623592 0.06775546 0.1713009 0.037362806 0.09065992 0.124866635 0.15154794
0.05487148 0.05109182 0.0052056583 -0.008448392 0.038567882 0.0024471905 0.26929262 0.17406921
0.023416132 0.20541795 0.20331131 0.19344842 0.16424836 -0.027868342 0.17285344 0.19841735
-0.060294848 0.045854714 -0.02154193 0.13501728 -0.0035182375 0.20479265 0.09440448 0.1219467
0.0871549 0.030254046 0.05598821 0.03999228 -0.019093659 -0.03841051 0.008454044 0.12905936
-0.034375455 -0.06711665 -0.022542749 -0.07609566 0.055863436 0.061078466 -0.03436096 0.15106413
0.10103718 -0.0526129 -0.017419053 0.14075175 0.04983866 -0.050679814 0.04056704 -0.07370665
0.09266174 -0.14844221 -0.1093481 -0.11420907 0.089862935 -0.01224967 -0.025160758 0.12824519
-0.074444845 0.011515295 -0.07823983 -0.08527271 0.1239198 -0.08568474 -0.035146493 -0.039561696
0.12901577 0.21005365 0.20380478 0.20294335 0.1893038 0.16887873 0.29850423 0.22124082
0.06609263 0.1304706 0.2904636 0.025020953 0.17050953 0.25998646 0.26671457 0.21505116
0.2759118 0.28718433 0.10846119 0.2236726 0.26374096 0.27085456 0.04102204 0.17848127
0.12776926 0.33405927 0.12603328 0.22605221 0.28760317 0.21929179 0.12429076 0.08719328
0.12926859 0.083613776 0.21764784 0.21649289 0.07872914 -0.02346462 -0.07557946 0.12571022
0.10304302 0.036036003 0.022903051 0.023145389 0.09621814 -0.002645695 0.13735923 -0.01715774
0.061255068 0.01204624 0.054055054 -0.092148446 -0.12917054 0.0905413 -0.10384921 0.02992628
0.07664466 -0.074545056 -0.11532184 -0.05006146 -0.014395304 -0.036077227 0.05442785 -0.09213761
-0.06799892 0.10592332 0.095453076 -0.112504825 -0.14211199 0.11862959 -0.15491071 -0.0812078
-0.035549596 0.03185685 -0.047185235 0.079781145 -0.11010364 0.10566546 0.008603871 -0.014839955
0.21488315 0.0028651168 -0.030267172 0.12058094 -0.054412626 0.07385576 0.08564797 0.032382183
0.0021793812 0.0009206309 -0.06008451 0.09081615 0.11288405 0.0837547 0.2202821 0.07478152

fc1.bias f4 [16]
00000000: ade1 debd f127 173e 6144 403e d00f 573c
00000010: 00cf a73d 726a a3bd 1aee c63c 58d7 023e
00000020: 48ad 25bd 9d9c 06be 4807 b23d 6fd0 da3d
00000030: f3b2 afbb 29a9 8d3e 153a 0cbe 5e1b 273e
-0.10882888 0.1476133 0.18776084 0.013126329 0.08193779 -0.07979287 0.024283458 0.1277746
-0.040448457 -0.1314568 0.08692795 0.10684287 -0.0053619086 0.2766812 -0.13694032 0.16319034

fc2.weight f4 [12, 16]
00000000: 4db6 cebc 3428 b0bd 1f33 293e b984 e1bd
00000010: 9ecf 443e 5d6d d83d f714 c4bd f2a4 243e
00000020: c073 423d 82c2 193e 78f7 823d b0c1 773e
00000030: 9e95 8c3e b37b 2a3e f13b 0ebd 7647 afbd
00000040: 51b7 aabd 385c 33bd f2b8 d73b 5d60 33be
00000050: 233c c23e 7888 30bd c6fe 323e a02f 4f3e
00000060: 469d 3a3e 06a3 83bd 9053 3dbd dc5d 43bc
00000070: e05c 883e fe4a 093d e01c f9bc 7410 b93e
00000080: f40a d33b dcdb 363e 42b7 433d 582b c33c
00000090: 0bd9 f33d f39f 1fbe bb73 45be 21ff edbc
000000a0: 0846 b4bd 0b46 90be 4026 32be adbd 2e3e
000000b0: bc05 4e3d a01d 403e 4bdb 69be 29ff 55be
000000c0: 1384 ac3c 90ba 223d 03f6 c6bd e3e0 bcbd
000000d0: 4acc 1b3e 77af 873d 8b8a 8bbe 2667 16bd
000000e0: e890 23be f595 79be ba15 37be 2d3f 323c
000000f0: b27d bc3e a7a5 353d 0454 063d 94be 14bd
00000100: 963f df3c 0c7b 5fbe 2aaf df3d a05e c03d
00000110: 5092 63bd 2afa 24be 54e8 6cbe 8261 503e
00000120: 3ce0 e43d 8664 7a3e ecf7 78be dc56 143d
00000130: f317 10be 6135 10be d962 593e 77a3 313e
00000140: 24d9 c7bd c4ad c0bd b059 9b3e c52d 163e
00000150: 95c1 ca3e a7ba 0dbd 0228 fd3d 824a 0bbe
00000160: 50a5 4bbe 4552 3cbd b4b6 c4bd 5c88 b73e
00000170: e513 a1bd 42c1 8a3d aff8 523e b0ad 3b3d
00000180: 4883 5e3e 160b 38be f8dd eebd 06cc 38be
00000190: ef87 36be f1d4 6d3e cdac 15bd ff6f 9bbd
000001a0: c052 58bd 89cd 003e fc2b 08be 6410 be3d
000001b0: 6622 123e 4a85 6cbe 03cd 563a 7fcd 65bc
000001c0: 90b2 093e 40cf 73be 80d4 d4bd 761c 383e
000001d0: 00c0 e0bd f483 c53d 8096 83bb 9473 903d
000001e0: a821 7ebe 0a5b 2f3e e43d 2dbe 4e14 5a3e
000001f0: 0479 a4bd 38b8 8f3d 40a7 843b 0437 80bd
00000200: 6e33 f43a 6413 1fbe 1d90 673d 73be 37be
00000210: eed2 23be 64ca 2fbe 07b5 b2bd 72ae aebd
00000220: d071 b53c ecb5 adbd 04e0 563e cacc 8cbe
00000230: 2a67 763e 2708 5c3e ef3b 463e cf90 363e
00000240: c1bf 6e3d f414 493e f16c 383e bfa0 ec3d
00000250: 5382 253e e01a f93d 505a ab3e fd91 70be
00000260: f48f 0ebe e461 3b3d 500e 0a3d 6297 703e
00000270: c9eb cb3e 8311 d83e 6b02 a6bd ee03 0e3e
00000280: d024 c7bd a2fe 723e b5d7 1c3e 23ab 4bbe
00000290: d24f a23e a98e 193c ed73 e2bd ec14 573d
000002a0: 441a 10be da5c 893e 98db b9bd a83e 183e
000002b0: a9d5 763e 60a0 813e 2890 3fbe 2b35 cd3c
000002c0: eb2f a9bd e810 503d ada6 2e3e ab64 15be
000002d0: 2590 d53d b8e4 78bd 1f70 f93d e8f2 f13d
000002e0: 2258 3e3e 9828 293d 2a5d 7e3e 4fb1 3ebe
000002f0: 5add a0bd a3cb 3bbe c150 433d 0553 2ebe
-0.025233412 -0.08601418 0.16523407 -0.11011643 0.19219825 0.105677344 -0.09574311 0.16078547
0.04747367 0.15015605 0.06394857 0.2419498 0.274579 0.1664875 -0.034725133 -0.08558552
-0.08335746 -0.04378912 0.0065833265 -0.17517228 0.37936506 -0.043098897 0.17480001 0.20233011
0.18224058 -0.06427579 -0.04622227 -0.011924233 0.26633358 0.033518784 -0.030409276 0.36145365
0.0064405147 0.17857307 0.04778219 0.023824379 0.11906632 -0.1558836 -0.19282429 -0.029052319
-0.0880242 -0.2817844 -0.17397404 0.17064543 0.050298437 0.18761301 -0.2283756 -0.20898117
0.021059072 0.0397287 -0.09714892 -0.09222581 0.15214649 0.06625264 -0.27254137 -0.036719464
-0.15973246 -0.2437361 -0.17879382 0.01087932 0.36814648 0.04434743 0.032794967 -0.036314562
0.027252 -0.21824282 0.10922082 0.09393048 -0.055559456 -0.16111055 -0.23135501 0.20349696
0.11175582 0.24452409 -0.24313325 0.036215648 -0.14071636 -0.14082862 0.21229114 0.17347513
-0.09758213 -0.09408143 0.30341864 0.14665897 0.39600816 -0.034601834 0.123611465 -0.13602641
-0.1988728 -0.045976896 -0.0960516 0.3584622 -0.07865123 0.06775142 0.20602678 0.04581994
0.21729767 -0.17972979 -0.11663431 -0.18046579 -0.17825292 0.23225762 -0.03654175 -0.07589721
-0.05281329 0.12578405 -0.13298029 0.0928047 0.14270934 -0.2309772 0.0008194001 -0.014026045
0.13447022 -0.23809528 -0.10392094 0.17979607 -0.10974121 0.09644309 -0.0040157437 0.07053295
-0.24817526 0.17124572 -0.1691814 0.21296808 -0.080308944 0.07017559 0.004048258 -0.062604934
0.001863105 -0.1553474 0.05653392 -0.17943744 -0.15998432 -0.1716705 -0.087259345 -0.085293666
0.022148997 -0.084819645 0.20983893 -0.27499992 0.24062791 0.21487485 0.193588 0.17828678
0.05828834 0.19636899 0.18010308 0.115540974 0.16162996 0.12163329 0.3346734 -0.2349319
-0.13922101 0.045747653 0.033705056 0.23495248 0.39828327 0.4220086 -0.0810593 0.13868687
-0.09723818 0.23729947 0.1531666 -0.19889502 0.31701523 0.009372392 -0.11057267 0.052510187
-0.1407252 0.26828653 -0.09075087 0.14867651 0.24104942 0.2531767 -0.18707335 0.025049767
-0.08261093 0.050797373 0.1705577 -0.14589183 0.10427884 -0.060765 0.121795885 0.11813909
0.18588307 0.04129848 0.24840227 -0.18622325 -0.078547195 -0.183394 0.047684435 -0.17023857

fc2.bias f4 [12]
00000000: 1c35 bc3d 5325 16bd 0c65 803e 51f5 503e
00000010: 0d9c fa3d f742 fe3d dc0a 073e 9866 07be
00000020: 89f7 52bd 94dd 953e 4033 933b 2eb9 79be
0.09189817 -0.03665669 0.25077093 0.20406081 0.122367956 0.12415116 0.13187736 -0.1322273
-0.0515056 0.29270613 0.0044921935 -0.24387047

fc3.weight f4 [28, 12]
00000000: af79 0abd a060 c63c 4c63 f2bd 3651 25be
00000010: 39d6 c4bd 65b7 fcbd bc15 3a3e 544a c23d
00000020: ec63 b73d 4c84 693e f565 123d e54f 363d
00000030: a871 83be 0a72 003e 880c 743e 8644 0c3e
00000040: 4a60 41be 1cc9 933e 406a 523e 9cad a83d
00000050: 980b bdbd d7dd eb3c ac67 8cbe ea88 103e
00000060: 7415 c53d ddd7 a1be e05c a4bb d5ad 6abe
00000070: 834a e9bd cdfb a0be a934 90be 1c1d 8d3e
00000080: d80f 303d ef2e 9ebe e60d 50be 05fc 19be
00000090: 1f48 cebd 6e5f 00be 24ee 1dbc 6a50 193e
000000a0: 3019 d8bc ec64 a3be 3752 8ebe 4685 373e
000000b0: 39db 553d dd91 72be 7e23 30be 1134 4e3e
000000c0: 108c 27be dbbd 15be ba87 b9be 74f2 053e
000000d0: 8fa1 8fbd 66db f33d 7fe9 063e 6aa1 f3bd
000000e0: 167f 9dbe 8ede 64be 7587 8cbe f334 243d
000000f0: 57bc b0be 1e11 d63b bd2a 163e 30f9 72bd
00000100: d0f6 fdbd 61f2 25bd ea6b 0f3e 7069 563d
00000110: dcd6 93bc 4c50 21bd 5f35 cfbd 7651 6fbe
00000120: a982 59be 103f 4bbd ecfc e23b ae59 22be
00000130: 0862 843e d6c8 2abe 7ad1 d1bd 2478 c73d
00000140: a8d9 453d c03a 95be 8788 a5be 6ab6 503e
00000150: 6fe9 1ebe e0d6 1e3c d00f d33d 00cc 18bd
00000160: 0001 053e fad8 553e 3a0c 8a3e 7494 74be
00000170: cc57 e23d ee94 d9bd ccfe 9cbd e59e 5ebe
00000180: 6680 643d 8b4b bfbe e011 4d3e d676 0e3e
00000190: 7546 93be e9a5 dfbd 415b 2bbe 4ac9 8b3e
000001a0: 8f85 7dbd 624b 05bd 5593 8ebc 6381 cbbd
000001b0: 3fc5 91bd fc09 683e 0d2c be3d faa2 a93e
000001c0: b0d7 013e 323c 62bb 621d 09be 5eb4 4bbe
000001d0: 3675 28be a986 683e f5e3 8cbd 5099 9a3c
000001e0: 2e7d d83d f203 583e 7d6d 383e 417c 0f3d
000001f0: 75a4 cfbd 7675 53bc 72ee 86be 0089 053c
00000200: 4069 e7bd 3cb3 053d c17c 373e 807e 173d
00000210: edac d43e f82d 473e f812 9d3d c82e de3b
00000220: 1c62 903e ab23 5c3e db84 72be c067 1ebc
00000230: 33df 2b3e a6e7 fcbc bf57 523e 574a 90bc
00000240: 2d55 91bd c964 e2bc d86b a83d 6763 b8bd
00000250: 9223 67be be40 f23e 6c23 eb3d c49a 173e
00000260: c818 7abe 24fc d23e 5b87 923d 2c50 1e3e
00000270: 9c63 ba3e ad82 a73e 7af0 353e 01f3 63bb
00000280: 7f80 953e 17c4 d5bd 9437 473e 201c b13d
00000290: 8fc5 16be 0cd0 863e ac49 6f3e 8e50 dfbd
000002a0: dea1 da3e 7af1 2e3e f2c1 aaba 4d7a ba3e
000002b0: d37b 7c3e 2440 e03e a686 47be 80d6 e9bc
000002c0: 811f 7ebe 3284 e0bd 600d a83e 0b68 143d
000002d0: 6004 0c3e 1846 a53e 102f 5abd bf3f e6bd
000002e0: b30a a03d df78 093e 4840 603d 7468 4a3e
000002f0: 479a 5abe 96ac 123e 4bb0 0a3e 2b3d 9fbd
00000300: fd9d 103e 2de7 993e 1747 9cbd 6fc5 943e
00000310: f4bd dabd 30bd 5f3d e12c 3bbe 41fb 20be
00000320: f7d4 04be 70d5 b93d 1588 303e 8684 16be
00000330: 2f05 963e 1e2f d33c b179 9b3a be92 1c3e
00000340: 0467 063e 2aa8 813e 282c 843e b0bb 963d
00000350: da86 41be b10d bb3e 32fb b0bd 6dda edbd
00000360: 8cd2 093e be6d 2c3d 28b1 f3bd 74f8 7b3c
00000370: 8086 debd 87e1 283d 810f 8fbe 7d3c 8fbe
00000380: 30da 4d3e 8627 5a3d 1253 513e 530c 623e
00000390: c315 233e d56d b13d d0b4 18bd f81f a1be
000003a0: 98ab 203d 85e9 50be b8ce 90bd 840d 93be
000003b0: c7ae 34be 49bf 3bbe 6726 8d3e fbd0 5f3e
000003c0: 86ce b93d 8260 7ebd 2a58 f3bd ed7e a13d
000003d0: ffc7 3c3d 487e d23d 0093 c23d c216 48be
000003e0: e430 443e 9c8a 97bd d111 a7be cf2b 96be
000003f0: 8140 c53c 1040 20bd 5c3e e23d f410 513e
-0.033807453 0.024215996 -0.118353456 -0.16144261 -0.09611172 -0.12339667 0.18172354 0.09486833
0.089546055 0.22804374 0.035741765 0.044509787 -0.2567265 0.12543502 0.23832905 0.13698015
-0.18884388 0.28864372 0.20548344 0.08236238 -0.09230727 0.028792305 -0.27422845 0.14114729
0.096232325 -0.31610003 -0.0050159544 -0.22917874 -0.11391165 -0.3144211 -0.28165177 0.2756127
0.04298386 -0.30895182 -0.20317802 -0.15037544 -0.1007235 -0.12536404 -0.009639297 0.14972082
-0.026379198 -0.31912935 -0.277971 0.17921934 0.05221102 -0.23688455 -0.17201039 0.2013705
-0.16362023 -0.14623205 -0.36236364 0.1308077 -0.07013237 0.11907081 0.13175009 -0.11896022
-0.3076102 -0.22350523 -0.27447096 0.04008956 -0.34518692 0.0065328022 0.14664741 -0.059319675
-0.124005914 -0.040514354 0.1400601 0.052346647 -0.018046789 -0.039383218 -0.101176016 -0.23370919
-0.21241249 -0.049620688 0.0069271233 -0.15854523 0.25856042 -0.16678175 -0.102450326 0.09739712
0.048303276 -0.29146385 -0.32330725 0.20382085 -0.15518735 0.009694785 0.1030575 -0.037303925
0.12988663 0.20883551 0.26962453 -0.23884755 0.11051902 -0.10624109 -0.07665786 -0.21740301
0.055786513 -0.37362322 0.2002635 0.1391252 -0.28764692 -0.10920317 -0.1673403 0.2730201
-0.06189495 -0.032542594 -0.017404238 -0.09936788 -0.071177 0.22660059 0.09285746 0.33132154
0.12679935 -0.0034520742 -0.13390115 -0.19893023 -0.16450962 0.22707619 -0.06879417 0.018871933
0.10570751 0.21095255 0.18010516 0.035030607 -0.101387896 -0.012906423 -0.26353794 0.008150339
-0.11299372 0.032641634 0.17918684 0.036985874 0.41538182 0.1945113 0.076696336 0.006780479
0.28199852 0.21497981 -0.23683493 -0.009668291 0.16784362 -0.030872177 0.20541285 -0.017613573
-0.07096324 -0.027635949 0.082236946 -0.090033345 -0.22572163 0.4731502 0.114813656 0.14805132
-0.24423516 0.41207993 0.07154723 0.1546027 0.3640412 0.32716885 0.17767516 -0.0034782293
0.29199597 -0.10437792 0.19454795 0.086479425 -0.147238 0.26330602 0.23367947 -0.109040365
0.4270162 0.17084303 -0.0013027771 0.36421433 0.2465661 0.43798935 -0.19484958 -0.028544664
-0.24816705 -0.10962714 0.32822704 0.036232036 0.13673544 0.3228004 -0.05326754 -0.11242627
0.07814541 0.13425015 0.054748803 0.19766408 -0.21347915 0.14323649 0.13543813 -0.07775339
0.14122768 0.30059186 -0.07630747 0.2905688 -0.10680762 0.054623783 -0.18278839 -0.15720846
-0.12971865 0.09073913 0.17239411 -0.14698991 0.2930083 0.025779303 0.0011861828 0.15290353
0.13125235 0.25323611 0.2581494 0.07360017 -0.18899098 0.36533883 -0.08641662 -0.11613927
0.13459224 0.042096846 -0.11899024 0.01537906 -0.108654976 0.041230705 -0.27941516 -0.27975836
0.20102763 0.05326035 0.20441845 0.22075014 0.1592627 0.08663527 -0.03728181 -0.31469703
0.039226145 -0.2040158 -0.070706785 -0.2872125 -0.17644797 -0.18334688 0.2756836 0.21857063
0.09072594 -0.062103756 -0.1188205 0.07885537 0.04608917 0.102779925 0.09500694 -0.19539931
0.19159275 -0.073994845 -0.3263078 -0.29330298 0.02407861 -0.039123595 0.1104705 0.20416623

fc3.bias f4 [28]
00000000: f987 f33d c102 80bd b8cb 37bc bd6d 48bd
00000010: c4ed 8cbe 1b9e 0ebe 0f63 043e 58a3 70be
00000020: 9c43 343e 47b4 bb3e f510 1c3e 490c c8bd
00000030: 9419 323e b99d 8f3c 0654 933e 0d58 cdbd
00000040: 5e2d 5f3e 48f1 9b3d 7080 75be 67a8 183e
00000050: 9860 91be 4b2b bebd a018 27be 7b1b c0be
00000060: 4f1f 10be 2ec2 923b f2dc 9fbe 7500 823c
0.11891169 -0.06250525 -0.011218004 -0.04893278 -0.2752515 -0.139275 0.12928413 -0.2349981
0.17603916 0.36660978 0.15240844 -0.09767968 0.1739257 0.017531263 0.28775042 -0.1002656
0.2179465 0.0761438 -0.23974776 0.1490799 -0.28394008 -0.09285601 -0.16317987 -0.37520966
-0.14074443 0.0044787144 -0.31223255 0.015869359
