dqn_aggressive.pth (torch, 7566 bytes, 6 tensors)

fc1.weight f4 [16, 40]
0.4872439 0.41839743 0.49118337 0.53839034 0.53404975 0.6293831 0.6127765 0.67342937
0.50428545 0.35229993 0.5833718 0.6600406 0.611604 0.43795973 0.5678035 0.4285246
0.2624789 0.78542596 0.5633078 0.47529274 0.66535217 0.41523322 0.6403349 0.34611902
0.386224 0.37378287 0.6243392 -0.07667115 -0.11154472 -0.2431047 -0.013793501 -0.1873169
-0.020697283 0.020459354 -0.12700623 0.14555724 0.29537365 0.11765953 0.1459302 0.6292239
0.30039805 0.5646271 0.4680051 0.38578588 0.61797893 0.4213257 0.31716433 0.62938154
0.4450109 0.5525551 0.58516866 0.40820506 0.5737464 0.564734 0.5760625 0.36153919
0.41472536 0.66774875 0.41847473 0.3602685 0.5679736 0.4750647 0.59331936 0.45124516
0.38290712 0.57639307 0.44957832 0.15247057 -0.046306465 0.11246171 0.27443215 0.20680994
-0.007637484 -0.054546118 0.018377025 -0.03645565 0.28708348 -0.20374916 0.023309762 0.5118673
0.30746102 0.16328098 0.48819944 0.33903056 0.48657006 0.4676193 0.59366184 0.18489641
0.24695987 0.4230956 0.19553743 0.37787017 0.36460516 0.33402252 0.44690567 0.32427195
0.21444641 0.30358797 0.17587166 0.33298522 0.29300764 0.48985812 0.42987046 0.33858886
0.26063696 0.17247666 0.3386179 -0.22042356 -0.006545071 -0.14719726 0.2368469 0.12508097
0.041541286 -0.0011988727 -0.10517149 -0.15662254 0.25465184 0.13035269 0.065233566 0.2290851
-0.020685382 0.2552834 0.39143872 0.3218704 0.20470107 -0.16115238 -0.07024572 0.15645616
0.45246086 0.1381554 0.13086335 0.3400511 0.23324421 0.31065136 0.27557844 -0.15428881
0.31447926 0.23341258 0.24114074 0.09169623 0.23441806 0.26493797 0.10070895 0.11554811
0.23291087 0.2025852 0.4403381 0.045050364 0.22117947 0.16300774 0.12207334 0.27099633
-0.13810603 0.027143987 0.30848154 0.2198613 -0.020174857 -0.255667 -0.3946549 0.23003303
-0.12413947 0.12594579 0.062289733 0.029877216 0.13963366 -0.16132265 -0.1520771 0.15021607
-0.009788559 -0.05693736 0.14467466 0.045613877 0.046181105 0.11291551 -0.02924839 -0.037706118
0.16973072 -0.014367328 0.13519834 -0.12197169 0.08838475 0.050450593 0.018649593 0.12538809
0.16893311 -0.037524424 0.03026368 0.13502286 0.3680945 0.32686406 0.12593259 0.16865452
0.27058265 0.15095237 0.31377465 0.35665053 -0.18356538 -0.22994334 -0.36351302 0.084765926
0.32832256 0.4565981 0.44586307 0.46937984 0.3547479 0.18388239 -0.2571146 0.35539845
0.3525082 0.3053059 0.48044893 0.4097544 0.43752506 0.3691855 0.24927507 0.34095255
0.33970207 0.25435978 0.20879884 0.054279294 0.19286159 0.34959164 0.2899396 0.34731165
0.44085547 0.1984312 0.32802814 0.2420154 0.10867701 0.19173987 0.2609393 0.15448788
0.26421383 0.14466438 0.36040613 0.04483958 -0.15373887 -0.5102467 -0.39925453 0.27426064
0.19196206 0.3818774 0.32747468 0.53591686 0.5305562 0.3649372 -0.100366965 0.38809264
0.47565082 0.38324898 0.30641818 0.42702615 0.47559938 0.47218207 0.25071958 0.1776085
00000000: 0878 f93e 3038 d63e 637c fb3e f3d3 093f
00000010: 7cb7 083f 401f 213f ecde 1c3f de65 2c3f
00000020: da18 013f a860 b43e db57 153f 6cf8 283f
00000030: 1492 1c3f 423c e03e 925b 113f 9467 db3e
00000040: a263 863e ad11 493f f134 103f 9259 f33e
00000050: 8554 2a3f 7399 d43e fdec 233f 8336 b13e
00000060: 27bf c53e 7860 bf3e b2d4 1f3f c405 9dbd
00000070: 8f71 e4bd 70f0 78be 23fe 61bc 00d0 3fbe
00000080: 598d a9bc 609a a73c ec0d 02be f50c 153e
00000090: 373b 973e 7bf7 f03d ba6e 153e d114 213f
000000a0: c6cd 993e 678b 103f 5d9e ef3e ba85 c53e
000000b0: de33 1e3f 01b8 d73e 5d63 a23e 261f 213f
000000c0: 78d8 e33e 4074 0d3f 9dcd 153f 4100 d13e
000000d0: 0be1 123f 6892 103f d578 133f aa1b b93e
000000e0: e256 d43e 95f1 2a3f 5242 d63e 1d75 b83e
000000f0: b866 113f ae3b f33e c7e3 173f 9b09 e73e
00000100: 670c c43e 7f8e 133f 212f e63e 3f21 1c3e
00000110: d9ab 3dbd 5352 e63d 5f82 8c3e fcc5 533e
00000120: dc43 fabb c06b 5fbd 6a8b 963c 8552 15bd
00000130: 9bfc 923e 9fa3 50be 1df4 be3c bc09 033f
00000140: 886b 9d3e 2133 273e 47f5 f93e 6a95 ad3e
00000150: b61f f93e cc6b ef3e 39fa 173f 7c55 3d3e
00000160: 0ce3 7c3e fd9f d83e f73a 483e 3378 c13e
00000170: 87ad ba3e 0005 ab3e d2d0 e43e f906 a63e
00000180: d797 5b3e e26f 9b3e b317 343e 0a7d aa3e
00000190: 1905 963e afce fa3e fb17 dc3e 855b ad3e
000001a0: 3572 853e b99d 303e 535f ad3e b7b6 61be
000001b0: 0978 d6bb e1ba 16be fe87 723e 3a15 003e
000001c0: 3227 2a3d 7e23 9dba 2664 d7bd a961 20be
000001d0: ba61 823e 2d7b 053e 2d99 853d 4995 6a3e
000001e0: 6474 a9bc 81b4 823e a86a c83e 32cc a43e
000001f0: 289d 513e 2105 25be fddc 8fbd 0b36 203e
00000200: f3a8 e73e 9c78 0d3e 0b01 063e 2e1b ae3e
00000210: 92d7 6e3e b20d 9f3e 9e18 8d3e e3fd 1dbe
00000220: 6d03 a13e b503 6f3e 99ed 763e 3ccb bb3d
00000230: 4a0b 703e f3a5 873e 7e40 ce3d 7da4 ec3d
00000240: 3080 6e3e 7f72 4f3e ff73 e13e bb86 383d
00000250: df7c 623e 80eb 263e 9601 fa3d 08c0 8a3e
00000260: ab6b 0dbe 115d de3c 4bf1 9d3e 5223 613e
00000270: be45 a5bc c9e6 82be 3510 cabe c78d 6b3e
00000280: d63c febd eff7 003e 8523 7f3d 10c1 f43c
00000290: 20fc 0e3e c431 25be 19ba 1bbe 3ed2 193e
000002a0: 3160 20bc 2637 69bd 9825 143e 9ed5 3a3d
000002b0: 6628 3d3d 3f40 e73d 529a efbc bb71 1abd
000002c0: e4cd 2d3e f164 6bbc 6f71 0a3e 4bcc f9bd
000002d0: 1003 b53d 48a5 4e3d 08c7 983c bc65 003e
000002e0: cdfc 2c3e 36b3 19bd 89eb f73c 6f43 0a3e
000002f0: e276 bc3e ba5a a73e 79f4 003e c5b3 2c3e
00000300: cf89 8a3e 4293 1a3e 12a7 a03e e69a b63e
00000310: 90f8 3bbe 4476 6bbe 611e babe c299 ad3d
00000320: e519 a83e 3ac7 e93e 2a48 e43e 8e52 f03e
00000330: 84a1 b53e aa4b 3c3e 86a4 83be c9f6 b53e
00000340: f47b b43e 0e51 9c3e 67fd f53e 54cb d13e
00000350: 4903 e03e e205 bd3e f741 7f3e 5591 ae3e
00000360: 6eed ad3e 723b 823e 5dcf 553e f753 5e3d
00000370: 827d 453e adfd b23e f772 943e d5d2 b13e
00000380: cfb7 e13e 8c31 4b3e 4ef3 a73e e3d2 773e
00000390: 0d92 de3d 7557 443e d699 853e 1232 1e3e
000003a0: 0947 873e e622 143e 2787 b83e b5a9 373d
000003b0: b96d 1dbe 879f 02bf 176b ccbe e46b 8c3e
000003c0: b491 443e 6f85 c33e c3aa a73e d931 093f
000003d0: 88d2 073f 0cd9 ba3e 328d cdbd 14b4 c63e
000003e0: 8188 f33e 3639 c43e d8e2 9c3e 2ca3 da3e
000003f0: c381 f33e d9c1 f13e 515e 803e 01df 353e

fc1.bias f4 [16]
0.6106479 0.5564387 0.1053905 0.18684323 0.2052443 0.33474934 0.39794716 0.102680616
-0.10397134 0.033762142 0.27046704 0.5438058 0.11712656 0.22740793 0.34236383 -0.013113186
00000000: 6c53 1c3f c472 0e3f f9d6 d73d d553 3f3e
00000010: 902b 523e 4464 ab3e bbbf cb3e 374a d23d
00000020: edee d4bd 2c4a 0a3d a87a 8a3e db36 0b3f
00000030: 0de0 ef3d a0dd 683e 504a af3e b0d8 56bc

fc2.weight f4 [12, 16]
-0.17795464 -0.07572818 -0.15856144 0.14353803 -0.009445757 -0.1284805 0.12542483 -0.13728559
-0.06488162 0.08395547 -0.108875126 0.04723373 -0.09493524 -0.21291855 -0.03688538 0.13811502
0.65491635 0.26556978 0.33652014 -0.19103022 -0.46901378 -0.28291693 -0.2434751 -0.36648706
-0.21734 -0.23887846 0.33566555 0.3045961 0.18815131 0.09635817 0.08906303 -0.01702708
0.045308292 -0.25972816 0.1661075 -0.09626659 0.16157785 -0.19577737 0.051309496 -0.24479464
0.20568547 0.015471131 -0.22599608 -0.049411047 -0.20125112 0.047826856 0.06937571 -0.10938677
0.4277141 0.21075132 0.35975707 0.1458673 -0.29409173 -0.08369355 0.25329164 0.20581271
0.24377097 0.027213871 0.36419445 0.38486397 0.043981675 -0.09222559 0.39985916 0.1545859
-0.1323511 -0.18378007 -0.10963756 0.22197455 -0.12300533 0.15024212 -0.15451425 -0.11134258
-0.23470321 0.08848065 0.044237405 -0.1287258 -0.21838209 -0.23319823 -0.15365013 0.060302377
0.4950779 0.36471054 0.023562683 0.476434 0.42924774 0.539441 0.45633996 0.08276815
-0.1621107 0.23153636 0.57128495 0.54585016 0.25016767 0.5261975 0.40150297 0.09766486
0.53074193 0.16960816 0.13256682 -0.38730738 -0.155573 0.26592222 0.23084737 -0.55594903
0.229658 0.11005077 0.28442678 0.309996 0.23220965 0.2708625 0.08708084 0.161818
0.55383843 0.2490335 0.18952322 0.020428842 -0.03150895 0.39867184 0.17683962 -0.06556334
-0.1481711 -0.05526817 0.14824218 0.56131715 0.021250688 0.39621526 0.47027627 -0.2374194
-0.06809275 -0.055297446 -0.01809006 -0.19760402 0.07301898 -0.13742332 -0.004499815 0.21373054
-0.07694009 0.11013472 -0.11260879 -0.18741648 0.09134813 -0.24622317 0.17373566 -0.015767992
0.096502855 -0.03658815 -0.0749437 -0.05290986 0.011800736 0.14881724 -0.09265298 -0.1382299
-0.14854534 0.10741338 -0.19452783 -0.020431513 -0.2630838 -0.019470239 0.09819641 0.033146143
0.20914513 0.08386335 -0.24754724 -0.1152353 -0.17862648 -0.015431792 -0.07487407 0.037519276
0.051132083 -0.0295358 -0.02900973 -0.23123506 -0.20253637 -0.13588819 -0.11074266 0.18282682
0.6427983 0.19267555 0.28622958 0.0642787 -0.006067386 -0.18597008 -0.007095946 -0.21577543
-0.10200279 -0.10124263 -0.04950233 0.33003044 0.40166768 0.11141591 0.36302397 -0.12009457
00000000: be39 36be 6017 9bbd ee5d 22be a2fb 123e
00000010: 60c2 1abc 6490 03be 5e6f 003e 9894 0cbe
00000020: a8e0 84bd d8f0 ab3d ecf9 debd 2878 413d
00000030: 686d c2bd 5207 5abe 2015 17bd 066e 0d3e
00000040: 99a8 273f c3f8 873e 5e4c ac3e 6d9d 43be
00000050: 9322 f0be 7dda 90be 8951 79be 31a4 bbbe
00000060: 618e 5ebe 8e9c 74be 5bdc ab3e 05f4 9b3e
00000070: bdaa 403e 6f57 c53d ae66 b63d 607c 8bbc
00000080: 3095 393d 17fb 84be 1618 2a3e 6b27 c5bd
00000090: aa74 253e dd79 48be e829 523d 72ab 7abe
000000a0: 369f 523e a07a 7d3c 846b 67be 3d63 4abd
000000b0: c614 4ebe 18e6 433d da14 8e3d 2c06 e0bd
000000c0: 58fd da3e 32cf 573e 1432 b83e 3d5e 153e
000000d0: 3193 96be 8667 abbd 71af 813e 91c0 523e
000000e0: 199f 793e a0ef de3c b277 ba3e e40c c53e
000000f0: 2126 343d c5e0 bcbd 57ba cc3e c44b 1e3e
00000100: 0c87 07be d830 3cbe a889 e0bd 4c4d 633e
00000110: 38ea fbbd 12d9 193e fc38 1ebe 9407 e4bd
00000120: 0a56 70be 5835 b53d 4832 353d b2d0 03be
00000130: 8e9f 5fbe 84cb 6ebe 7656 1dbe a0ff 763d
00000140: da7a fd3e 57bb ba3e 8706 c13c 28ef f33e
00000150: 5cc6 db3e ce18 0a3f 64a5 e93e 5982 a93d
00000160: 5900 26be de17 6d3e bb3f 123f d6bc 0b3f
00000170: fa15 803e e1b4 063f cc91 cd3e 8404 c83d
00000180: b4de 073f c3ad 2d3e 99bf 073e 274d c6be
00000190: 874e 1fbe f526 883e 4163 6c3e ad52 0ebf
000001a0: 772b 6b3e 4c62 e13d 63a0 913e ccb7 9e3e
000001b0: 5ec8 6d3e 7dae 8a3e 7057 b23d 9eb3 253e
000001c0: 5bc8 0d3f a302 7f3e 6012 423e 635a a73c
000001d0: 870f 01bd b71e cc3e 7215 353e 1346 86bd
000001e0: 2aba 17be e060 62bd cccc 173e 7bb2 0f3f
000001f0: ec15 ae3c badc ca3e 0dc8 f03e 121e 73be
00000200: 3674 8bbd 937f 62bd 9b31 94bc b558 4abe
00000210: fa8a 953d b3b8 0cbe 2f73 93bb 2edc 5a3e
00000220: c492 9dbd 508e e13d 709f e6bd 1bea 3fbe
00000230: ba14 bb3d ed21 7cbe c3e7 313e e02b 81bc
00000240: 4aa3 c53d 75dd 15bd 157c 99bd 02b8 58bd
00000250: e057 413c 8c63 183e d8c0 bdbd 248c 0dbe
00000260: 451c 18be 8cfb db3d 4e32 47be fd5f a7bc
00000270: ebb2 86be 0d80 9fbc 331b c93d 40c4 073d
00000280: 242a 563e 8cc0 ab3d 067d 7dbe 7c00 ecbd
00000290: dce9 36be a0d5 7cbc 9457 99bd d0ad 193d
000002a0: e06f 513d 10f5 f1bc d0a5 edbc e2c8 6cbe
000002b0: b265 4fbe 4626 0bbe 0ccd e2bd f436 3b3e
000002c0: 6e8e 243f bd4c 453e af8c 923e 8da4 833d
000002d0: ecd0 c6bb f16e 3ebe 1c85 e8bb 3cf4 5cbe
000002e0: d7e6 d0bd 4c58 cfbd f5c2 4abd c0f9 a83e
000002f0: 63a7 cd3e 062e e43d 47de b93e 24f4 f5bd

fc2.bias f4 [12]
-0.030497104 -0.016930625 -0.26576415 0.44051424 0.17037615 0.022545738 0.015320207 0.37383664
-0.16218889 0.21795905 0.11030784 0.058223646
00000000: 10d5 f9bc 18b2 8abc 3d12 88be 158b e13e
00000010: 1677 2e3e d7b1 b83c 9b01 7b3c 8467 bf3e
00000020: d814 26be a830 5f3e 14e9 e13d eb7b 6e3d

fc3.weight f4 [28, 12]
-0.2861528 0.19320016 -0.17680478 0.06743824 0.105620354 0.16681246 0.111089684 0.4559455
0.26737294 -0.14860849 0.07484421 -0.018393857 0.037923068 0.23180372 -0.15512465 -0.06188921
-0.020618469 0.27616012 0.17531234 0.13171901 0.06921935 -0.00045212024 0.15145287 0.22276902
0.22497624 0.5939248 -0.10088922 -0.04452732 0.1279645 0.22327742 0.019637192 -0.06594484
-0.0061863004 0.12590615 -0.19194531 0.44608676 -0.15573293 0.37944928 -0.25356585 0.09524138
-0.0068754554 0.21616685 0.18382323 -0.05959529 -0.12715928 -0.0758565 -0.11378093 0.29846263
0.0034080446 0.25888136 -0.02861479 0.06817022 -0.16605005 0.00091588055 0.1717407 0.2836032
0.21184123 0.23503625 0.23020273 0.28522304 0.27400786 0.27265963 -0.056184158 0.2700774
-0.23175178 -0.02809531 0.1882247 0.32445747 0.035718054 0.28079545 0.20358187 0.08774141
0.21593273 0.23931442 0.24159098 0.34227234 -0.27574494 0.14888364 0.32354844 -0.11423504
0.1688934 0.042526066 0.029582411 0.25569287 0.11011082 0.14566612 0.27421123 0.18028988
-0.009597242 0.20962298 0.1220781 0.10487812 0.027611375 0.23209539 0.20094788 0.053534813
0.18509457 0.5023173 -0.010023613 -0.063877955 0.26859802 0.14362836 -0.16696562 0.36832327
0.21933676 -0.12411094 0.05576229 0.068585195 -0.06473845 0.36798513 -0.24321128 -0.049762398
0.123642206 0.3614484 0.25962707 0.037992757 0.1515432 -0.16114818 -0.26454136 0.21579546
-0.19319633 0.16577594 0.22181201 0.31959617 0.2428034 0.34195614 0.031658635 0.0997739
-0.1508116 -0.16499682 0.19132578 0.2943547 0.16680393 0.1778774 -0.24247229 0.27648106
0.12439862 0.23272292 0.3916451 0.15819691 -0.030221667 0.11485876 -0.1487976 0.43931457
-0.19328861 0.36966467 -0.14517854 0.08255268 0.27398163 0.29752973 0.45478097 0.15944909
0.28466684 -0.19803132 -0.08876203 0.3043094 -0.27339408 0.18018733 -0.1414429 0.31963524
0.21243215 0.18792452 0.5279442 0.2205675 -0.107934274 0.066554636 0.028633982 0.37987396
-0.26123178 0.34958446 0.2499914 0.25901052 -0.036814123 0.26782194 0.17597198 0.39598742
-0.16922262 -0.1892291 0.019534439 0.07164751 0.26637232 -0.071405806 -0.02803731 0.41483316
0.14449134 0.25996992 0.4175149 0.13439916 0.17902276 -0.11036633 -0.16461858 0.26927143
-0.0814306 0.23581849 0.084359765 0.5288946 0.17783564 0.06507966 0.11939138 0.5049921
-0.16858158 0.28534847 0.23617578 0.41453442 0.079983294 0.48416585 -0.09390707 0.22620495
-0.008432806 0.31474715 0.14210017 0.1967064 0.28021073 0.11029288 0.12699652 0.2527056
-0.09396042 0.4421681 0.26678795 -0.2519849 -0.1688127 0.300237 -0.008615915 0.15978685
0.18388563 0.14486122 0.20506108 0.10408223 0.053926766 -0.11264033 0.10041955 0.08397264
0.11057085 0.24603367 0.039571658 0.18418226 0.051824156 0.07422677 0.039258122 0.17485525
-0.24615593 0.30712062 -0.104347795 0.15244092 -0.09531398 0.24400017 -0.2825672 0.25075582
0.10303988 -0.26952302 0.18220544 0.0632141 -0.12309663 -0.035963982 -0.24755016 0.3184514
00000000: 9f82 92be 43d6 453e 500c 35be 0f1d 8a3d
00000010: 7c4f d83d e3d0 2a3e fd82 e33d b071 e93e
00000020: 1be5 883e d32c 18be ec47 993d b7ae 96bc
00000030: 3855 1b3d f45d 6d3e ffd8 1ebe 8a7f 7dbd
00000040: 10e8 a8bc dc64 8d3e 1485 333e 59e1 063e
00000050: e0c2 8d3d 8d0a edb9 7616 1b3e 901d 643e
00000060: 2c60 663e 750b 183f 029f cebd 4762 36bd
00000070: 2009 033e d6a2 643e 2dde a03c 170e 87bd
00000080: 73b6 cabb 8bed 003e 508d 44be 7c65 e43e
00000090: 7478 1fbe 2d47 c23e 62d3 81be ea0d c33d
000000a0: 804b e1bb d85a 5d3e 283c 3c3e 311a 74bd
000000b0: 0b36 02be a75a 9bbd fa05 e9bd 18d0 983e
000000c0: 8059 5f3b 198c 843e 9069 eabc d49c 8b3d
000000d0: 0609 2abe b417 703a cbdc 2f3e 7034 913e
000000e0: e8ec 583e 58ad 703e 44ba 6b3e c108 923e
000000f0: c24a 8c3e 0b9a 8b3e 5c21 66bd 9647 8a3e
00000100: 5750 6dbe 2328 e6bc fabd 403e 4a1f a63e
00000110: 184d 123d 6cc4 8f3e c477 503e c5b1 b33d
00000120: 781d 5d3e d70e 753e a063 773e 523e af3e
00000130: 712e 8dbe f474 183e 24a8 a53e 10f4 e9bd
00000140: 64f2 2c3e d02f 2e3d d056 f23c 2dea 823e
00000150: c881 e13d 8029 153e 6a65 8c3e e99d 383e
00000160: c03d 1dbc 68a7 563e 1504 fa3d 57ca d63d
00000170: 4031 e23c 6aaa 6d3e 48c5 4d3e 5247 5b3d
00000180: 6e89 3d3e de97 003f 153a 24bc 72d2 82bd
00000190: ae85 893e 5013 133e 09f9 2abe de94 bc3e
000001a0: d199 603e e02d febd 0067 643d 6576 8c3d
000001b0: 9895 84bd 8c68 bc3e 610c 79be a8d3 4bbd
000001c0: 2038 fd3d c40f b93e d7ed 843e 4b9e 1b3d
000001d0: 242e 1b3e 0704 25be f771 87be 7cf9 5c3e
000001e0: 42d5 45be 2bc1 293e b022 633e 1ca2 a33e
000001f0: 74a1 783e e014 af3e 7cac 013d 4256 cc3d
00000200: 5b6e 1abe edf4 28be e8ea 433e a9b5 963e
00000210: a6ce 2a3e 7e25 363e a84a 78be ed8e 8d3e
00000220: b4c4 fe3d eb4e 6e3e b585 c83e 5ffe 213e
00000230: 6e93 f7bc 123b eb3d 665e 18be d7ed e03e
00000240: 73ed 45be b044 bd3e afa9 14be 6111 a93d
00000250: 5247 8c3e d155 983e 0dd9 e83e 9f46 233e
00000260: dabf 913e b9c8 4abe dec8 b5bd 71ce 9b3e
00000270: 4ffa 8bbe 0783 383e 68d6 10be 3ba7 a33e
00000280: d087 593e 496f 403e 5a27 073f 72dc 613e
00000290: a50c ddbd cc4d 883d d091 ea3c d77e c23e
000002a0: 2cc0 85be bcfc b23e bffd 7f3e 079d 843e
000002b0: 68ca 16bd f51f 893e 0032 343e ddbe ca3e
000002c0: b248 2dbe 46c5 41be b006 a03c eebb 923d
000002d0: f461 883e 353d 92bd 80ae e5bc 0365 d43e
000002e0: 8af5 133e c71a 853e 83c4 d53e ef9f 093e
000002f0: be51 373e be07 e2bd c691 28be f2dd 893e
00000300: 16c5 a6bd 677a 713e d0c4 ac3d a365 073f
00000310: 8c1a 363e 7c48 853d 7883 f43d 2a47 013f
00000320: a6a0 2cbe 3219 923e 10d8 713e db3d d43e
00000330: 48ce a33d 96e4 f73e 5a52 c0bd 45a2 673e
00000340: c029 0abc 8a26 a13e b582 113e 676d 493e
00000350: c877 8f3e 3ce1 e13d 600b 023e a162 813e
00000360: 526e c0bd db63 e23e 6e98 883e 2a04 81be
00000370: 3ddd 2cbe aab8 993e c429 0dbc 2a9f 233e
00000380: 844c 3c3e 8056 143e 88fb 513e 1029 d53d
00000390: 50e2 5c3d f9af e6bd c4a8 cd3d d9f9 ab3d
000003a0: f872 e23d 40f0 7b3e e415 223d 469a 3c3e
000003b0: 9145 543d 3404 983d 20cd 203d 410d 333e
000003c0: 4d10 7cbe ea3e 9d3e 4cb4 d5bd 7919 1c3e
000003d0: fa33 c3bd 2edb 793e a6ac 90be 1163 803e
000003e0: 9306 d33d ecfe 89be 1094 3a3e 6576 813d
000003f0: 161a fcbd f84e 13bd ca7d 7dbe 100c a33e

fc3.bias f4 [28]
0.3952829 -0.03861737 -0.12618709 -0.16379978 0.3123385 0.2748505 0.17557076 -0.083139725
0.32417202 0.24841502 0.07542132 0.39909628 0.20774108 -0.08847475 0.4280511 0.12516557
-0.059328906 0.37436405 -0.1117735 0.12883425 -0.30257177 -0.15032116 -0.19050844 0.402667
0.17690289 0.18969178 0.32059327 0.03268059
00000000: 8562 ca3e 3f2d 1ebd 3037 01be 21bb 27be
00000010: d5ea 9f3e 34b9 8c3e d2c8 333e 2945 aabd
00000020: e0f9 a53e 8260 7e3e 7e76 9a3d 5956 cc3e
00000030: 14ba 543e 4032 b5bd 8429 db3e 672b 003e
00000040: de02 73bd a5ac bf3e 81e9 e4bd 20ed 033e
00000050: b0ea 9abe caed 19be a514 43be 5e2a ce3e
00000060: 0826 353e 903e 423e cd24 a43e 15dc 053d
